.model/model_00560728.ckpt (torch, 71139 bytes, 12 tensors)

net.0.net.0.weight f4 [8, 3, 3, 3]
0.071951404 0.16471261 0.2806938 0.18120158 0.088080965 0.24918641 -0.06757597 0.2573318
0.17666408 -0.04233124 0.18589509 0.04670964 0.0683073 0.24114971 0.16890536 -0.26282826
0.04413169 0.1868409 -0.13004191 -0.06262683 -0.15281686 -0.11689384 -0.1597643 -0.06981644
0.056633763 -0.058522303 0.022372419 0.13231382 -0.03564028 -0.00010989777 -0.25795108 -0.07218054
0.057167694 -0.047027346 0.0039936746 0.021871535 0.024785275 -0.12601896 0.08975362 -0.1138321
-0.12695579 -0.010614797 -0.20736338 -0.1388698 0.03211074 -0.25280505 -0.14325894 0.07236527
-0.24752359 0.07139403 -0.20403759 -0.18369451 -0.24669844 -0.1603075 -0.10512712 -0.09317628
-0.27810976 0.05138306 0.06251337 0.062867194 -0.15428922 -0.036589593 -0.0071478486 0.046073128
-0.10213286 -0.26702514 -0.16454032 -0.10357887 -0.21813291 0.042842567 -0.0796 -0.23355202
-0.23606443 -0.22533208 0.059401114 -0.026017033 -0.004427104 -0.18089017 0.04451814 -0.16597016
-0.21838513 -0.101126395 0.00019535077 0.060642503 0.15436636 -0.0145588275 0.089746326 0.13327572
-0.04910111 0.16156387 0.044907972 0.0027453124 -0.0058222306 -0.0660614 -0.09184775 -0.029882902
-0.021685435 -0.1368712 0.0040914775 0.029172877 -0.026906507 -0.086388454 -0.18870687 -0.11895386
-0.14140165 -0.027465815 0.09505416 -0.08755023 0.2901237 0.052130107 0.13650142 0.12787755
0.07889821 -0.050834652 0.054581966 0.06990539 -0.07658006 0.058122467 0.027256848 -0.08280518
0.11774743 0.044498976 -0.15242034 -0.17062382 0.13254572 -0.08330407 -0.040599696 0.14152174
0.07745689 -0.13421579 -0.08261091 0.19533984 -0.16616924 -0.094921924 -0.16986495 -0.14865021
0.19833937 -0.1190957 0.015151419 -0.00022715687 -0.07891732 -0.075002484 -0.11107917 0.07390786
-0.06640949 0.0051948056 -0.00041916725 0.116807275 -0.1296391 -0.009958817 0.055764884 0.15812567
-0.06727609 0.09250641 0.05216503 -0.043635663 -0.023814788 0.08905334 0.10389018 0.075654924
0.122570686 0.041537073 -0.2701581 -0.21755712 -0.19428241 -0.11833906 -0.013733006 -0.015352691
-0.22271888 -0.27199337 -0.17443348 0.07115155 -0.0031932937 0.08795743 -0.16654474 -0.07377239
-0.050271828 -0.21489494 0.001912545 -0.13078135 0.07246484 0.005813266 0.085895516 0.2171896
0.050716948 0.012345303 -0.09652533 0.22544122 -0.04893295 0.03784189 0.12223037 0.17601056
0.063387156 -0.020324217 0.02401194 0.13121615 0.0514731 -0.029370707 0.09603481 -0.0036263878
0.1571922 0.24380253 0.2011816 0.16151036 0.2112059 -0.060707957 0.120105326 0.25847992
0.05637031 0.0739588 0.24706067 0.00075213384 0.09725908 0.19819371 0.31405404 0.31302825
00000000: 425b 933d 6caa 283e 19b7 8f3e e88c 393e
00000010: cb63 b43d b92a 7f3e 4565 8abd fec0 833e
00000020: 6ee7 343e 8663 2dbd 485b 3e3e 9c52 3f3d
00000030: b3e4 8b3d f3ef 763e 87f5 2c3e 6d91 86be
00000040: 6ec3 343d 3953 3f3e b529 05be 7f42 80bd
00000050: 067c 1cbe 0a66 efbd 4199 23be ecfb 8ebd
00000060: cef8 673d 15b5 6fbd 5d46 b73c 467d 073e
00000070: 8bfb 11bd ea78 e6b8 2a12 84be 64d3 93bd
00000080: ac28 6a3d bf9f 40bd 5fdd 823b ef2b b33c
00000090: 7d0a cb3c 1d0b 01be bfd0 b73d ce20 e9bd
000000a0: b300 02be afe9 2dbc 1157 54be e333 0ebe
000000b0: 8d86 033d aa6f 81be 79b2 12be 3e34 943d
000000c0: d376 7dbe 0837 923d 3bef 50be 6a1a 3cbe
000000d0: 849e 7cbe a627 24be e34c d7bd 35d3 bebd
000000e0: 6764 8ebe 0b77 523d 0207 803d 84c0 803d
000000f0: fefd 1dbe f8de 15bd 8038 eabb 2db7 3c3d
00000100: 082b d1bd 85b7 88be 427d 28be 2921 d4bd
00000110: 3c5e 5fbe b07b 2f3d 5305 a3bd 4328 6fbe
00000120: e0ba 71be 74bd 66be 954e 733d ac21 d5bc
00000130: 3d11 91bb 463b 39be a758 363d 15f4 29be
00000140: 5aa0 5fbe 5b1b cfbd 13d7 4c39 4664 783d
00000150: 3712 1e3e 2688 6ebc eccc b73d 6e79 083e
00000160: 3f1e 49bd 0071 253e 6cf1 373d b3ea 333b
00000170: 69c8 bebb 334b 87bd ac1a bcbd fdcc f4bc
00000180: a7a5 b1bc f727 0cbe cd11 863b f5fb ee3c
00000190: 096b dcbc 6eec b0bd 603c 41be 159e f3bd
000001a0: 98cb 10be fdff e0bc c1ab c23d 894d b3bd
000001b0: 188b 943e 6186 553d 07c7 0b3e 55f2 023e
000001c0: 6295 a13d ff37 50bd 5791 5f3d 8f2a 8f3d
000001d0: 02d6 9cbd d311 6e3d c149 df3c c395 a9bd
000001e0: 9125 f13d 8f44 363d 1414 1cbe 03b8 2ebe
000001f0: 11ba 073e 539b aabd de4b 26bd 13eb 103e
00000200: b8a1 9e3d dd6f 09be e92f a9bd 2b07 483e
00000210: 4528 2abe 6d66 c2bd 14f1 2dbe c337 18be
00000220: 7a19 4b3e 72e8 f3bd a83d 783c f530 6eb9
00000230: 679f a1bd e79a 99bd 7a7d e3bd 015d 973d
00000240: b301 88bd 3039 aa3b adc3 dbb9 a738 ef3d
00000250: 1dc0 04be 4e2a 23bc b869 643d b2eb 213e
00000260: 0cc8 89bd 0074 bd3d 00ab 553d 4fbb 32bd
00000270: 3b17 c3bc 9961 b63d 60c4 d43d f8f0 9a3d
00000280: 5706 fb3d c722 2a3d 2a52 8abe 4bc7 5ebe
00000290: f8f1 46be c05b f2bd 6700 61bc da89 7bbc
000002a0: 6b10 64be b742 8bbe b19e 32be e7b7 913d
000002b0: 9446 51bb 0623 b43d b48a 2abe fb15 97bd
000002c0: d5e9 4dbd 6b0d 5cbe 5cae fa3a 8ceb 05be
000002d0: 7268 943d 367d be3b fde9 af3d f366 5e3e
000002e0: 93bc 4f3d f443 4a3c 12af c5bd 10da 663e
000002f0: eb6d 48bd 1900 1b3d eb53 fa3d 1d3c 343e
00000300: 20d1 813d f97e a6bc b0b4 c43c 875d 063e
00000310: 75d5 523d d69a f0bc e6ad c43d b1a8 6dbb
00000320: fef6 203e 5fa7 793e 8d02 4e3e f962 253e
00000330: 5c46 583e e8a8 78bd c8f9 f53d 7b57 843e
00000340: 8ee4 663d b677 973d 79fd 7c3e d92a 453a
00000350: c52f c73d 4bf3 4a3e b1cb a03e 3d45 a03e

net.0.net.0.bias f4 [8]
-0.036993746 0.20823751 0.01119032 0.43618882 0.29427832 0.6981298 -0.30883145 -0.37471235
00000000: c186 17bd 373c 553e 9b57 373c 2454 df3e
00000010: a6ab 963e a2b8 323f 281f 9ebe 4cda bfbe

net.0.net.3.weight f4 [16, 8, 3, 3]
-0.012972983 -0.017083013 0.050239686 -0.020525431 0.10118085 0.042714566 -0.041831315 0.05479752
0.046600983 0.053124096 0.01631536 -0.085098535 -0.018194675 -0.10899888 0.021226501 0.10981664
0.055379245 0.13187636 -0.030560412 -0.003956222 0.117360115 0.076159425 0.06247431 -0.002236715
0.1064426 -0.04784207 0.1068318 0.12655145 -0.009983271 0.15064317 0.04124714 0.14546981
0.09637395 0.20073517 0.22589195 0.13814619 -0.015031756 0.11508784 0.12069351 0.12411916
0.047919635 0.132275 0.12519807 0.16818869 0.020908989 0.22868834 0.08181146 0.2327554
0.22659001 0.09427438 0.12971044 0.112066284 0.20058218 0.18607977 -8.643692e-06 -0.103524126
0.04254974 0.03281492 0.022675004 -0.06728723 0.105009615 0.09658366 0.015946874 -0.0036289548
0.02835487 0.03778755 -0.07603471 0.092775784 0.08037231 -0.058883715 -0.14906788 -0.07634636
0.20042375 -0.18657574 -0.095393695 0.00369738 -0.25886592 -0.20643392 0.17371175 0.07089624
0.22140735 -0.015448711 0.10015761 0.12034477 -0.07139588 0.0737299 0.058312282 0.013728238
-0.026737634 -0.010122554 0.04817555 0.056853734 0.19994347 -0.012899344 0.12978943 0.033203073
-0.08421491 -0.09758909 0.052954637 -0.08452359 -0.038199678 0.08803451 0.10188713 0.10393708
0.01699855 -0.0028437597 0.012028154 0.063951336 0.24208555 -0.019411797 0.049235098 0.029946495
-0.09012771 -0.25902554 0.06397382 0.016167229 -0.061056234 -0.027709354 -0.11833779 -0.1530435
0.15462467 -0.018924834 0.025677579 0.14629228 0.15281445 -0.044339985 0.08085139 0.000882011
0.12035082 0.07549077 0.20814976 0.19876395 -0.09402916 0.05121703 -0.0045848605 0.18120745
-0.029455936 -0.307445 0.09603197 -0.09194179 -0.20204641 0.03129029 0.20105785 0.15292202
0.00030354835 -0.05171562 0.13642852 0.009261152 0.07787079 0.07447617 0.04432611 -0.02915292
0.16109699 0.06304525 -0.089782216 0.021480603 0.014105909 0.107419014 0.094319396 -0.07733533
0.073250845 -0.06707599 -0.098563164 0.10586777 -0.15039064 0.099112116 0.03511681 -0.07324046
-0.025903074 0.11493129 -0.042722356 0.042033497 0.1127781 0.047983244 0.080210574 0.10491727
0.075396314 -0.0053378134 0.20351993 0.17387089 0.08594411 0.10348109 0.15691029 0.021306116
0.22234274 0.26153487 0.14956366 -0.06873202 -0.020950504 0.11116694 0.23350282 0.3075947
0.07768417 0.0069976803 0.23523182 0.15908846 0.23844627 0.28965336 -0.038162574 0.021720001
-0.19127165 0.029317083 0.14189363 0.044678 -0.0468342 -0.03447505 0.13803275 0.15710448
0.019826733 0.1012062 -0.024784097 0.08645748 0.089628346 0.009351952 0.048333384 0.05253158
-0.08053353 0.0632865 -0.02527654 0.047144514 -0.13235985 -0.041190155 0.00091353885 -0.08405587
0.18844016 -0.10471309 0.0065808976 -0.0073875003 0.071446456 0.13253959 0.16387515 -0.057100818
0.11720069 0.06806889 0.050304648 -0.042430565 -0.04811534 0.02131532 0.102249414 0.14787044
0.015400986 0.066155985 0.09006234 -0.019684281 0.027474444 0.0962863 0.05438072 -0.024212833
0.011396179 -0.006946815 -0.042647965 0.07191416 -0.0899548 -0.06687238 0.0012486243 -0.060217865
00000000: a28c 54bc adf1 8bbc 21c8 4d3d f324 a8bc
00000010: e837 cf3d 78f5 2e3d 5057 2bbd 5d73 603d
00000020: ace0 3e3d a798 593d caa7 853c 2448 aebd
00000030: 000d 95bc ce3a dfbd 33e3 ad3c 8ce7 e03d
00000040: 59d5 623d 990a 073e d459 fabc 32a3 81bb
00000050: 805a f03d 79f9 9b3d 10e5 7f3d da95 12bb
00000060: 94fe d93d 0cf6 43bd a1ca da3d b496 013e
00000070: e090 23bc 3442 1a3e c3f2 283d 0af6 143e
00000080: b55f c53d 858d 4d3e 3850 673e 3276 0d3e
00000090: c147 76bc 2cb3 eb3d 292e f73d 3032 fe3d
000000a0: 6147 443d 1973 073e ec33 003e a839 2c3e
000000b0: 5449 ab3c 472d 6a3e c48c a73d 6e57 6e3e
000000c0: 3607 683e ed12 c13d d0d2 043e 0283 e53d
000000d0: 6a65 4d3e b28b 3e3e 6004 11b7 7504 d4bd
000000e0: a348 2e3d f068 063d eec0 b93c e3cd 89bd
000000f0: 480f d73d a7cd c53d 05a3 823c c2d3 6dbb
00000100: 7948 e83c 1ec7 1a3d 16b8 9bbd 3b01 be3d
00000110: 3d9a a43d 0d30 71bd 40a5 18be 7b5b 9cbd
00000120: e23b 4d3e b60d 3fbe c55d c3bd be4f 723b
00000130: 138a 84be 6a63 53be 7ee1 313e 0c32 913d
00000140: 9cb8 623e 971c 7dbc 6f1f cd3d 5277 f63d
00000150: 0138 92bd b4ff 963d dcd8 6e3d 67ec 603c
00000160: e208 dbbc 12d9 25bc ba53 453d 76df 683d
00000170: fbbd 4c3e c557 53bc 85e7 043e f2ff 073d
00000180: de78 acbd cadc c7bd f6e6 583d b41a adbd
00000190: 4477 1cbd 704b b43d 33aa d03d f7dc d43d
000001a0: 8b40 8b3c 5f5e 3abb bc11 453c ebf8 823d
000001b0: 46e5 773e 7d05 9fbc beaa 493d 5a52 f53c
000001c0: e094 b8bd ff9e 84be b504 833d 2371 843c
000001d0: 1a16 7abd bafe e2bc 155b f2bd 6fb7 1cbe
000001e0: ee55 1e3e 4108 9bbc c959 d23c a5cd 153e
000001f0: 647b 1c3e d89d 35bd 6a95 a53d c236 673a
00000200: 7e7a f63d e89a 9a3d 3625 553e c788 4b3e
00000210: 5c92 c0bd f3c8 513d 993c 96bb 728e 393e
00000220: 934d f1bc 6e69 9dbe 69ac c43d fa4b bcbd
00000230: 41e5 4ebe 3f2a 003d 1ce2 4d3e 9797 1c3e
00000240: 9225 9f39 c2d3 53bd ebb3 0b3e 16bc 173c
00000250: b97a 9f3d f686 983d 4c8f 353d 1bd2 eebc
00000260: 9cf6 243e de1d 813d bddf b7bd 17f8 af3c
00000270: 781c 673c 80fe db3d 872a c13d fc61 9ebd
00000280: 8a04 963d 235f 89bd 7cdb c9bd 34d1 d83d
00000290: 0100 1abe 4bfb ca3d a5d6 0f3d 18ff 95bd
000002a0: af32 d4bc 1961 eb3d a3fd 2ebd 512b 2c3d
000002b0: 34f8 e63d 148a 443d 7145 a43d dede d63d
000002c0: 6269 9a3d d3e8 aebb 8767 503e 360b 323e
000002d0: 7703 b03d e5ed d33d 17ad 203e 2a8a ae3c
000002e0: d1ad 633e e6e7 853e 3727 193e 60c3 8cbd
000002f0: 64a0 abbc 7eab e33d 5d1b 6f3e 0d7d 9d3e
00000300: e118 9f3d cc4c e53b 9ce0 703e 16e8 223e
00000310: 422b 743e 724d 943e 5c50 1cbd 25ee b13c
00000320: b7dc 43be 612a f03c 904c 113e 4700 373d
00000330: 38d5 3fbd b635 0dbd 7558 0d3e ffdf 203e
00000340: ac6b a23c 3245 cf3d 0508 cbbc 9f10 b13d
00000350: 118f b73d ee38 193c 3af9 453d 5b2b 573d
00000360: c3ee a4bd 5a9c 813d bf10 cfbc 9b1a 413d
00000370: 5789 07be 02b7 28bd 8e7a 6f3a 7c25 acbd
00000380: 75f6 403e d173 d6bd 92a4 d73b d812 f2bb
00000390: 8552 923d 75b8 073e e3ce 273e 8ce2 69bd
000003a0: ea06 f03d b467 8b3d 3f0c 4e3d accb 2dbd
000003b0: 9714 45bd 779d ae3c 2468 d13d 596b 173e
000003c0: 6b54 7c3c ca7c 873d 9b72 b83d ee40 a1bc
000003d0: 1612 e13c c031 c53d 51be 5e3d fe59 c6bc
000003e0: 0ab7 3a3c 1ca2 e3bb a2af 2ebd bb47 933d
000003f0: 393a b8bd 63f4 88bd e1a8 a33a 02a7 76bd

net.0.net.3.bias f4 [16]
0.30913702 -0.105876155 0.05344428 0.16671598 0.30969602 0.25279522 0.1999462 -0.03731952
-0.16847338 0.12548275 0.051135294 0.17992829 -0.06329889 0.2037101 0.22712222 -0.019126048
00000000: 3547 9e3e 99d5 d8bd 64e8 5a3d 98b7 2a3e
00000010: 7a90 9e3e 606e 813e b2be 4c3e 5adc 18bd
00000020: 4984 2cbe 8d7e 003e 3e73 513d 1f3f 383e
00000030: d9a2 81bd 6199 503e ba92 683e 3bae 9cbc

net.0.net.6.weight f4 [32, 16, 3, 3]
-0.019989027 -0.018141432 -0.0023555097 0.071481 0.026808133 0.07468042 0.010709212 0.021643553
0.04420059 0.06765287 0.07007678 0.037121102 -0.15467519 -0.015342002 0.07798676 -0.08187029
-0.105933286 0.037192363 0.038992867 0.025183996 0.055519693 0.03632232 0.03207983 -0.05653088
-0.0056317137 -0.027107352 0.07434719 0.07709127 0.036460288 0.071043566 -0.0105403075 -0.053121615
0.11239965 -0.0009181622 -0.043181635 0.09480901 -0.053998657 0.06509809 -0.028130025 0.028072458
0.0049961754 0.055017155 -0.014570241 0.025331305 0.01727944 0.19038849 0.12168533 -0.032422256
-0.12424499 -0.045755845 0.054499794 0.02668801 -0.030846853 0.077692315 -0.0075203762 0.06248964
0.05828853 0.0006035105 0.07088633 0.025087705 0.023449691 0.021023745 0.0711798 0.045139097
-0.054168787 0.06067004 0.029883476 0.017005276 -0.0136596 -0.061202127 -0.03428529 -0.03016502
-0.20276313 -0.14855395 0.009772249 0.09368335 -0.31923968 -0.11294392 -0.05558153 -0.1281706
0.09194336 -0.027484 -0.10931682 0.040108062 -0.005392012 -0.020126577 -0.049092636 -0.04032786
-0.045428038 0.048824638 -0.020961752 -0.00024315185 0.017355122 -0.039914265 0.019620603 0.015034185
-0.07940918 -0.0059252456 0.028287271 0.02993509 0.106630415 0.074821316 -0.124337286 0.011139299
0.09257328 -0.015539286 -0.024362544 0.079966836 0.04678455 -0.056025323 0.066968344 0.03679102
0.08218068 0.052213278 0.028952256 -0.016858166 0.02030144 -0.017066382 0.057932626 0.10415934
-0.0342462 -0.040542997 0.04034669 -0.18225798 -0.0805061 0.050340287 0.03326729 -0.020137917
-0.0024324404 0.071577065 -0.021706652 0.029307758 0.059424505 0.079947405 0.076593935 -0.09666926
0.073838934 0.011738246 0.10215256 -0.0019328268 0.035456277 -0.017710116 -0.026281437 -0.022186162
0.09443157 -0.00468168 0.06810036 -0.019071482 0.031154193 0.00733582 0.054658357 0.05300039
0.10879089 -0.014078538 -0.0065059755 -0.030941157 0.068253316 -0.041594997 -0.018953722 0.014794236
-0.025557881 -0.054773223 -0.04108204 0.019828906 0.023351954 -0.003069251 0.00211967 0.051740237
0.07059542 0.0041885506 -0.020991622 0.045021262 0.080003954 0.10341275 0.045140147 0.010254347
-0.04728663 -0.011110635 0.04986376 0.06939326 0.08297719 -0.0058170697 -0.015858874 0.11707665
0.0024523665 -0.0025968018 0.05151484 0.068786785 0.019463858 0.0038037444 0.12504216 -0.04269337
-0.035311323 0.07789964 0.07307792 -0.005702453 0.063539065 0.012630066 0.029301248 0.051206645
-0.006000328 -0.06801381 0.035610907 -0.078569874 0.098136365 0.0040080976 -0.03542085 -0.046196938
-0.011672163 -0.06722812 -0.052371956 0.073048174 0.0070105894 0.03068841 0.048902314 -0.029472938
-0.044305477 0.10883098 -0.15210487 -0.06650621 0.19568338 -0.12107394 0.036289677 -0.024451755
-0.070953526 0.07634039 -0.17819639 -0.036916874 0.0025893117 -0.113909185 -0.014253254 0.052138
-0.057366908 -0.03062989 -0.022490272 0.044592664 0.009775384 0.060113255 -0.034509312 -0.047445122
-0.041495897 -0.004897887 0.034371357 0.065136656 0.13051167 -0.06640128 -0.062950775 0.13830939
0.047938444 -0.02102436 -0.016891927 -0.011186574 -0.05898316 -0.010953664 -0.10130003 0.006053909
00000000: 07c0 a3bc 579d 94bc e55e 1abb a164 923d
00000010: bb9c db3c 0cf2 983d b175 2f3c d24d b13c
00000020: ae0b 353d 978d 8a3d 6a84 8f3d 4c0c 183d
00000030: 2c63 1ebe 055d 7bbc 86b7 9f3d 9cab a7bd
00000040: 8df3 d8bd 0557 183d fcb6 1f3d ab4e ce3c
00000050: 9e68 633d b7c6 143d 2466 033d ed8c 67bd
00000060: 3d8a b8bb 3d10 debc 5743 983d 07e2 9d3d
00000070: 6257 153d 4a7f 913d 41b1 2cbc 0d96 59bd
00000080: ca31 e63d d2b0 70ba 3adf 30bd 3a2b c23d
00000090: b22d 5dbd 2652 853d f070 e6bc 36f8 e53c
000000a0: f5b6 a33b ab59 613d 05b8 6ebc 9983 cf3c
000000b0: 9d8d 8d3c 33f5 423e 2936 f93d 33cd 04bd
000000c0: 2874 febd 7b6a 3bbd 2d3b 5f3d d0a0 da3c
000000d0: 8ab2 fcbc 261d 9f3d 7d6d f6bb 23f5 7f3d
000000e0: f4bf 6e3d e734 1e3a da2c 913d bb84 cd3c
000000f0: 9119 c03c fd39 ac3c b7c6 913d c6e3 383d
00000100: 17e0 5dbd 2681 783d 31ce f43c a64e 8b3c
00000110: 84cc 5fbc 15af 7abd bb6e 0cbd a21c f7bc
00000120: 23a1 4fbe 871e 18be c81b 203c 0edd bf3d
00000130: 6273 a3be 244f e7bd 75a9 63bd 273f 03be
00000140: cd4c bc3d 2026 e1bc 7fe1 dfbd 5a48 243d
00000150: 7aaf b0bb 7ee0 a4bc 5c15 49bd d32e 25bd
00000160: c012 3abd 58fc 473d fbb7 abbc 94f6 7eb9
00000170: 542c 8e3c 247d 23bd 63bb a03c f151 763c
00000180: 48a1 a2bd 9028 c2bb b5ba e73c 6f3a f53c
00000190: 0c61 da3d eb3b 993d 8ca4 febd 9b81 363c
000001a0: 0f97 bd3d 7d98 7ebc f593 c7bc a7c5 a33d
000001b0: 28a1 3f3d cf7a 65bd b326 893d 2eb2 163d
000001c0: 584e a83d 97dd 553d 482d ed3c 231a 8abc
000001d0: 354f a63c ccce 8bbc c34a 6d3d 7e51 d53d
000001e0: be45 0cbd 6a10 26bd 9242 253d d6a1 3abe
000001f0: 62e0 a4bd 9e31 4e3d 4843 083d 46f8 a4bc
00000200: 9469 1fbb ff96 923d 26d2 b1bc d316 f03c
00000210: 1c67 733d 77bb a33d 48dd 9c3d 88fa c5bd
00000220: de38 973d c651 403c 5d35 d13d e856 fdba
00000230: 9a3a 113d ce14 91bc 2b4c d7bc c1bf b5bc
00000240: 5765 c13d c768 99bb 3478 8b3d cc3b 9cbc
00000250: 1437 ff3c 5161 f03b 71e1 5f3d f016 593d
00000260: c2cd de3d aba9 66bc 1430 d5bb 4f78 fdbc
00000270: 65c8 8b3d 845f 2abd d644 9bbc 8663 723c
00000280: c35e d1bc e359 60bd a445 28bd 3b70 a23c
00000290: 994c bf3c 7d25 49bb 29ea 0a3b 92ed 533d
000002a0: 5594 903d 1c40 893b 9ff6 abbc 3768 383d
000002b0: 1dd9 a33d 10ca d33d e0e4 383d d901 283c
000002c0: a0af 41bd 6109 36bc f13d 4c3d 0e1e 8e3d
000002d0: f2ef a93d 1e9d bebb 78ea 81bc e2c5 ef3d
000002e0: e2b7 203b 1b2f 2abb 3a01 533d 16e0 8c3d
000002f0: ab72 9f3c 3e48 793b 0d0b 003e 3edf 2ebd
00000300: 9ba2 10bd d989 9f3d e0a9 953d a5db babb
00000310: c520 823d 56ee 4e3c 2c09 f03c 0fbe 513d
00000320: 669e c4bb d34a 8bbd bedc 113d 3ee9 a0bd
00000330: b8fb c83d 5c56 833b 7415 11bd 0039 3dbd
00000340: 9a3c 3fbc e6ae 89bd fa83 56bd 489a 953d
00000350: 16b9 e53b 4366 fb3c cb4d 483d 3b71 f1bc
00000360: a979 35bd c7e2 de3d 61c1 1bbe 6834 88bd
00000370: 3961 483e 9df5 f7bd 7ca4 143d 0c4f c8bc
00000380: 1550 91bd 5a58 9c3d 1d79 36be 2636 17bd
00000390: 71b1 293b 3849 e9bd 7b86 69bc a88e 553d
000003a0: 90f9 6abd 89eb fabc 853d b8bc cca6 363d
000003b0: ef28 203c 5139 763d a359 0dbd d155 42bd
000003c0: 9af7 29bd 747e a0bb fbc8 0c3d 5e66 853d
000003d0: daa4 053e 65fd 87bd 56ec 80bd faa0 0d3e
000003e0: 1a5b 443d 473b acbc f060 8abc e447 37bc
000003f0: 5398 71bd ff76 33bc 6476 cfbd df5f c63b

net.0.net.6.bias f4 [32]
0.07099072 -0.009656393 -0.010233489 0.03005455 0.27557188 0.02218385 0.13306242 0.3561906
0.28445375 0.29692018 0.19837959 0.6083416 0.12952924 0.10670495 0.05766171 -0.07440549
0.1985038 0.15939987 0.1924531 0.049809292 0.21312395 -0.15683605 0.0131336255 0.13186343
-0.013686406 0.119139984 0.08516112 0.14241013 0.035789452 0.09436675 0.14557946 0.08770145
00000000: 9563 913d d935 1ebc 5daa 27bc f634 f63c
00000010: c217 8d3e e8ba b53c 8441 083e 9d5e b63e
00000020: eca3 913e ec05 983e 0524 4b3e 46bc 1b3f
00000030: 50a3 043e 2088 da3d af2e 6c3d e861 98bd
00000040: 9544 4b3e b839 233e 6d12 453e d404 4c3d
00000050: 2a3d 5a3e a199 20be 6b2e 573c 3507 073e
00000060: f33c 60bc aaff f33d f468 ae3d f6d3 113e
00000070: f697 123d 5b43 c13d c812 153e d19c b33d

net.1.net.0.weight f4 [32, 16, 4, 4]
-0.06325445 -0.03314029 -0.012130652 0.008466047 -0.026623579 0.021038951 -0.07834924 -0.007303801
0.07057865 0.066696845 0.050607525 -0.02407558 -0.033603404 0.060382094 -0.03742987 -0.073672615
0.042440206 -0.096274026 -0.06843559 -0.023216063 -0.059421156 0.020982776 0.15950787 0.012965196
-0.06859996 0.029686313 -0.013451999 -0.088471174 -0.06058778 0.13581492 0.05327167 -0.08045163
-0.004178953 -0.025500508 0.017209427 0.01576461 0.040915772 0.016389571 0.098273054 -0.019279076
-0.011633616 0.02471237 0.08376952 0.0023688439 0.007895276 0.0022947101 0.008261595 0.016141864
0.017902473 0.034573868 0.066234276 0.07249644 0.015882177 0.093613856 -0.04709583 -0.0033393013
0.12908603 0.058288306 0.15094869 -0.009056493 -0.05857163 -0.003907976 -0.046224423 0.05797141
-0.046358816 -0.08708739 -0.03250208 -0.050190993 0.04870474 0.11833152 -0.048148315 0.035315234
-0.0014289484 0.07256526 0.037379377 -0.064496905 -0.055216026 0.115313396 -0.0015799274 -0.074905664
0.0025530728 -0.030847242 0.125146 0.012219747 0.046524365 -0.08919481 0.019747438 0.049929686
0.0077385013 0.019526131 -0.06132131 0.035629347 -0.05870125 -0.023054473 -0.010925498 0.016732266
0.084125765 0.0879778 0.06835147 0.03579415 0.13756825 0.14006957 0.08361155 0.057812203
-0.09928107 -0.006922337 0.047408804 0.106073275 0.004886193 0.05634975 0.009229259 0.016989484
-0.02717795 0.054676324 0.08036019 0.0535683 0.049668487 -0.08000213 0.031337835 -0.008440885
-0.056234147 -0.02739003 0.09867656 0.11510749 0.014539008 -0.029794775 -0.06273467 0.035581112
-0.019085407 0.030247286 0.05253854 -0.015118026 0.030575726 0.045437805 0.07919299 -0.036668222
0.011646005 -0.010040877 0.05375977 0.008311714 -0.0386141 -0.00468788 0.012630095 -0.0036545277
0.036130562 0.033203077 -0.0534885 0.02183129 0.003442069 0.06934569 0.07570575 0.007758968
0.082994804 -0.040836032 0.10711522 0.03370125 0.013300892 0.04549762 0.034893285 0.05621944
-0.006918769 -0.019439602 -0.019622631 0.0030942804 0.0405202 -0.039861288 0.0049714576 -0.02036686
0.07350215 -0.011611301 0.009416405 0.028553078 0.04774714 -0.031384286 0.008440167 -0.0427765
0.06486851 0.064747475 0.07891299 0.008746378 0.02757615 0.31557018 0.044533737 -0.0046951133
0.011862556 0.019400766 0.06353105 0.06734436 0.017667195 0.0013606499 -0.026723543 -0.08856266
0.019173808 0.07074113 0.111261174 0.033957608 0.036397625 0.12413608 0.042057686 0.0171773
0.025042342 -0.14528011 0.18544143 0.048073936 0.06239554 0.07543027 -0.049231492 -0.022830833
-0.03739872 0.00032971296 0.05579255 -0.052887663 -0.0063331425 0.011741082 -0.012511849 0.0395398
0.04698641 0.079426005 -0.0059164977 0.048017077 -0.030364841 0.09091677 0.022516988 -0.067634396
0.047127306 0.054970756 0.059427567 0.08270699 -0.015306911 -0.006390571 0.16411136 0.008392898
-0.0052298172 -0.026683377 0.0071675912 -0.0014156193 -0.017550938 -0.028012656 0.040257562 -0.0016626674
-0.0064625833 -0.036948916 -0.008659141 0.019470349 -0.029677352 0.0034139904 0.033700146 0.054121166
-0.017922962 0.089837015 0.0670494 0.016914807 0.05932493 0.11622279 -0.030956851 -0.051240396
00000000: 8d8b 81bd 1dbe 07bd a4bf 46bc 2db5 0a3c
00000010: b119 dabc e159 ac3c 9175 a0bd b954 efbb
00000020: 8a8b 903d 5b98 883d d649 4f3d 273a c5bc
00000030: b9a3 09bd 3753 773d 1050 19bd abe1 96bd
00000040: c8d5 2d3d 512b c5bd f527 8cbd 9d2f bebc
00000050: 9963 73bd 12e4 ab3c 0856 233e f96b 543c
00000060: 237e 8cbd b630 f33c c665 5cbc 6030 b5bd
00000070: e42a 78bd 1113 0b3e 6533 5a3d d3c3 a4bd
00000080: 99ef 88bb 71e6 d0bc c9fa 8c3c c924 813c
00000090: 4c97 273d 6c43 863c 6243 c93d 27ef 9dbc
000000a0: ec9a 3ebc 9971 ca3c 5b8f ab3d 9b3e 1b3b
000000b0: 305b 013c d962 163b a45b 073c f13b 843c
000000c0: 35a8 923c 549d 0d3d d6a5 873d 0379 943d
000000d0: 571b 823c 9fb8 bf3d 8fe7 40bd 2ed8 5abb
000000e0: 212f 043e b8bf 6e3d 4b92 1a3e af61 14bc
000000f0: cee8 6fbd 7b0e 80bb d255 3dbd 6e73 6d3d
00000100: bee2 3dbd e05a b2bd e720 05bd 1295 4dbd
00000110: 9f7e 473d cc57 f23d 2b37 45bd b5a6 103d
00000120: 8d4b bbba 189d 943d 1e1b 193d f416 84bd
00000130: 332a 62bd 6e29 ec3d 9115 cfba 2468 99bd
00000140: 7451 273b 5bb3 fcbc 4626 003e 5535 483c
00000150: 5590 3e3d c5ab b6bd 61c5 a13c 1283 4c3d
00000160: 4193 fd3b 44f5 9f3c 0e2c 7bbd 14f0 113d
00000170: b970 70bd bcdc bcbc dc00 33bc 1b12 893c
00000180: 214a ac3d b42d b43d dbfb 8b3d e39c 123d
00000190: b1de 0c3e 666e 0f3e 883c ab3d 7dcc 6c3d
000001a0: e053 cbbd c6d4 e2bb bc2f 423d f23c d93d
000001b0: 5c1c a03b ffce 663d 5136 173c 882d 8b3c
000001c0: 4ba4 debc 48f4 5f3d e293 a43d 6f6a 5b3d
000001d0: 2f71 4b3d 28d8 a3bd 1a5c 003d a34b 0abc
000001e0: c755 66bd 0e61 e0bc f016 ca3d 7abd eb3d
000001f0: 0535 6e3c 2c14 f4bc 097b 80bd 80bd 113d
00000200: 0059 9cbc 28c9 f73c a732 573d 99b1 77bc
00000210: f279 fa3c fe1c 3a3d ef2f a23d 6b31 16bd
00000220: e3ce 3e3c 7e82 24bc 3433 5c3d db2d 083c
00000230: d229 1ebd ca9c 99bb 75ee 4e3c cd80 6fbb
00000240: a4fd 133d f3ff 073d c216 5bbd 89d7 b23c
00000250: 5694 613b 1d05 8e3d 9e0b 9b3d f13e fe3b
00000260: 2ef9 a93d af43 27bd 395f db3d 520a 0a3d
00000270: fceb 593c b65b 3a3d 43ec 0e3d 5b46 663d
00000280: d7b6 e2bb cd3f 9fbc a4bf a0bc 69c9 4a3b
00000290: 82f8 253d 9745 23bd 9ce7 a23b 67d8 a6bc
000002a0: 4c88 963d 543d 3ebc 4447 1a3c 25e8 e93c
000002b0: 8192 433d cf8c 00bd a048 0a3c 6936 2fbd
000002c0: c8d9 843d 539a 843d 229d a13d f84c 0f3c
000002d0: 61e7 e13c 6a92 a13e 0269 363d 77d9 99bb
000002e0: 2b5b 423c 5bee 9e3c 911c 823d d7eb 893d
000002f0: cbba 903c d657 b23a 55eb dabc 5760 b5bd
00000300: 6412 9d3c bae0 903d e6dc e33d 2217 0b3d
00000310: ad15 153d 0f3b fe3d ae44 2c3d 69b7 8c3c
00000320: 9925 cd3c 4fc4 14be 5ce4 3d3e 2de9 443d
00000330: 7792 7f3d 2f7b 9a3d f6a6 49bd ba07 bbbc
00000340: 662f 19bd 53dd ac39 bb86 643d bca0 58bd
00000350: 4086 cfbb ab5d 403c 80fe 4cbc 7cf4 213d
00000360: d274 403d 1aaa a23d 2edf c1bb 8ead 443d
00000370: b0bf f8bc 9232 ba3d 8c75 b83c e783 8abd
00000380: 9008 413d 0429 613d 526a 733d 4862 a93d
00000390: d7c9 7abc ff67 d1bb cf0c 283e 5e82 093c
000003a0: e35e abbb 1997 dabc 1dde ea3b 4d8c b9ba
000003b0: fcc6 8fbc cc7a e5bc 1de5 243d dced d9ba
000003c0: 14c4 d3bb bf57 17bd 12df 0dbc 4880 9f3c
000003d0: eb1d f3bc 41bd 5f3b 2a09 0a3d 28ae 5d3d
000003e0: 2dd3 92bc 78fc b73d 3251 893d ec90 8a3c
000003f0: b3fe 723d 3706 ee3d 3999 fdbc 73e1 51bd

net.1.net.0.bias f4 [16]
0.024315076 0.024448894 0.13019577 0.02510166 -0.012985088 -0.073382184 0.053202514 0.03888325
0.15774404 -0.014589259 -0.028167443 0.15191849 0.10039888 0.12379069 0.0045759287 0.12160377
00000000: 6930 c73c 0c49 c83c 0a52 053e ffa1 cd3c
00000010: 68bf 54bc 6649 96bd e1ea 593d 0b44 1f3d
00000020: a787 213e ca07 6fbc 69bf e6bc 8590 1b3e
00000030: ee9d cd3d f985 fd3d acf1 953b 660b f93d

net.1.net.2.weight f4 [16, 8, 4, 4]
0.02263327 0.12732492 0.108883634 0.061854903 0.07047838 0.29643795 0.21448219 0.15923357
0.13605432 0.28686854 0.2813999 0.17681444 0.031476792 0.18854727 0.1378592 0.09817039
0.0048785964 0.0373663 0.019550145 -0.113780275 -0.039243754 0.10764444 -0.102587886 0.058212016
0.01811009 0.11431581 0.041791905 0.035539337 -0.39570898 -0.0026781538 -0.010081565 0.032940034
0.014522522 -0.0065820534 -0.016093323 -0.031674605 0.05731167 0.044449642 0.013088598 -0.022179222
0.04607879 0.028414194 -0.003135979 -0.066638164 0.03336271 -0.018535197 0.0016706089 -0.050840914
0.0044819876 -0.08526234 -0.047113176 0.022212239 0.047869746 -0.06222795 0.02448775 0.056801718
0.00610277 -0.056292634 -0.062939845 -0.108170025 -0.048335817 0.057768907 -0.07071805 0.05592977
0.027206665 -0.033228226 -0.03407982 -0.031070717 0.047896862 0.051016245 0.031687878 -0.034015357
0.086817905 0.0766177 0.0693532 -0.02014465 0.061971594 0.053513546 0.05795077 -0.007998084
0.01372175 -0.018787736 0.005517591 -0.0075972816 0.051093258 0.0019336917 0.02442868 -0.02856707
0.044056956 0.034811776 0.030343818 -0.042082325 0.07005796 -0.009425385 0.01212649 -0.055856336
0.059181515 -0.05793719 -0.021808913 0.060988896 -0.11324178 -0.05358372 -0.24108647 -0.059451967
0.047563054 0.022063147 0.0135304 -0.030425567 0.00090828666 -0.033566345 -0.10200259 -0.12318425
-0.0076770307 -0.07863505 -0.017797008 -0.058981653 0.04919677 0.0015080178 0.05179715 -0.04273992
-0.05571249 -0.022912668 -0.03162286 -0.06044191 -0.022358706 -0.014979496 -0.050560404 0.0009220477
-0.011038826 0.09474644 0.095674224 0.0129522765 0.21115217 0.40028718 0.42218658 0.22354783
0.06629549 0.21729358 0.25496694 0.0621144 0.05355401 0.13757962 0.16491832 0.0417815
-0.0150682675 0.011843856 -0.019218039 0.081006646 0.090097584 -0.018991869 0.055783328 -0.089808345
-0.009308356 -0.2625507 -0.020073572 -0.21985435 -0.3418109 -0.1693079 0.0276671 -0.08690534
0.021439092 0.03948103 0.0076138843 0.013675113 0.046484783 0.12151048 0.029169124 -0.019797957
0.14118543 0.2699469 0.14908248 0.05597024 0.09227116 0.16292557 0.070877016 0.044355974
-0.052778173 -0.092039205 -0.028540498 0.06662737 -0.063708894 -0.0475638 -0.054708164 0.015517807
0.020978406 0.047968484 0.078713045 -0.045070115 0.052494064 0.0354888 -0.010238549 0.0021669883
-0.07301161 -0.046464484 -0.103306636 0.020574491 -0.024302032 0.065843865 0.0015808064 -0.034193862
0.095670916 0.26163 0.0906239 0.07803848 0.042145494 0.11798712 0.029220693 -0.020370223
-0.0993161 -0.051745676 -0.043916117 0.022533378 -0.11876624 0.031114938 -0.0038853376 0.017810484
0.039928842 0.17605177 0.10870417 0.06893893 0.008838609 0.07760061 -0.0035356677 0.01020117
0.103385285 -0.006426921 -0.12753215 -0.037824795 0.13020177 -0.10004181 -0.03482167 0.024702037
0.12607878 0.19897927 0.07597518 0.017494963 0.15191601 0.034554012 0.034055285 -0.051098317
0.11563581 -0.06226101 0.082419 0.041575886 0.17415062 -0.0006719666 0.15252456 -0.0043078163
0.11345263 0.077486515 -0.008965757 -0.04297996 0.10937399 -0.0029291615 0.12614368 0.0712726
00000000: 6869 b93c 7761 023e 62fe de3d 915b 7d3d
00000010: f856 903d b7c6 973e 38a1 5b3e 200e 233e
00000020: d351 0b3e 6fe0 923e a613 903e d80e 353e
00000030: cfed 003d 8912 413e f62a 0d3e 8f0d c93d
00000040: a2dc 9f3b 680d 193d a027 a03c a205 e9bd
00000050: 0fbe 20bd b074 dc3d 9919 d2bd b96f 6e3d
00000060: 9d5b 943c 681e ea3d fd2d 2b3d b291 113d
00000070: 5e9a cabe f783 2fbb 262d 25bc 21ec 063d
00000080: dfef 6d3c 44ae d7bb 25d6 83bc 3bbd 01bd
00000090: a4bf 6a3d d410 363d 8f71 563c 33b1 b5bc
000000a0: 1dbd 3c3d e2c4 e83c ff84 4dbb 9779 88bd
000000b0: 56a7 083d 20d7 97bc 55f8 da3a 903e 50bd
000000c0: a3dd 923b 069e aebd bff9 40bd 71f6 b53c
000000d0: 1113 443d bce2 7ebd 899a c83c eba8 683d
000000e0: bff9 c73b 1b93 66bd 9be6 80bd 3f88 ddbd
000000f0: c7fb 45bd 179f 6c3d a0d4 90bd 9d16 653d
00000100: 83e0 de3c 521a 08bd 4897 0bbd 0488 febc
00000110: 802f 443d 69f6 503d 26cb 013d b053 0bbd
00000120: 96cd b13d bee9 9c3d 0d09 8e3d 6506 a5bc
00000130: edd5 7d3d 0531 5b3d c95d 6d3d 650a 03bc
00000140: 31d1 603c bde8 99bc e8cc b43b 9ef2 f8bb
00000150: 2a47 513d ed73 fd3a a81e c83c 7d05 eabc
00000160: 1175 343d cb96 0e3d 9993 f83c 845e 2cbd
00000170: 8c7a 8f3d ee6c 1abc 2fae 463c 9dc9 64bd
00000180: 5168 723d 8c4f 6dbd 9ba8 b2bc 7ecf 793d
00000190: 4eeb e7bd 9a7a 5bbd 5fdf 76be e883 73bd
000001a0: 7ad1 423d c6bd b43c 9cae 5d3c 0a3f f9bc
000001b0: 161a 6e3a dd7c 09bd bce6 d0bd 0648 fcbd
000001c0: 9a8f fbbb 6a0b a1bd 08cb 91bc bf96 71bd
000001d0: 8d82 493d aea8 c53a 4029 543d 0e10 2fbd
000001e0: c832 64bd 59b3 bbbc f986 01bd f091 77bd
000001f0: 9b29 b7bc 8f6c 75bc 6d18 4fbd 93b5 713a
00000200: 31dc 34bc 6c0a c23d d9f0 c33d c935 543c
00000210: 4638 583e 71f2 cc3e d728 d83e b9e9 643e
00000220: eec5 873d 3582 5e3e 078b 823e ab6b 7e3d
00000230: 735b 5b3d ace1 0c3e 59e0 283e 1423 2b3d
00000240: e5e0 76bc bc0c 423c 266f 9dbc d0e6 a53d
00000250: 1585 b83d d694 9bbc 0f7d 643d 70ed b7bd
00000260: 1382 18bc 0c6d 86be 5571 a4bc 8021 61be
00000270: d701 afbe 0d5f 2dbe 1da6 e23c 6dfb b1bd
00000280: 09a1 af3c dcb6 213d e47d f93b 950d 603c
00000290: d466 3e3d 7dda f83d 16f4 ee3c 532f a2bc
000002a0: ea92 103e 7b36 8a3e 14a9 183e 0d41 653d
000002b0: a9f8 bc3d f6d5 263e f827 913d 9cae 353d
000002c0: ed2d 58bd 0d7f bcbd c3cd e9bc ee73 883d
000002d0: cf79 82bd 42d2 42bd ab15 60bd 663e 7e3c
000002e0: e8da ab3c 9a7a 443d 4e34 a13d 719b 38bd
000002f0: 0404 573d b45c 113d 96bf 27bc 0804 0e3b
00000300: 1c87 95bd 8b51 3ebd 6e92 d3bd d68b a83c
00000310: 0e15 c7bc 26d9 863d 1033 cf3a dd0e 0cbd
00000320: 1def c33d 5ef4 853e 0699 b93d a3d2 9f3d
00000330: c1a0 2c3d 3ba3 f13d 3c60 ef3c 74df a6bc
00000340: 3d66 cbbd 46f3 53bd 63e1 33bd eb97 b83c
00000350: b73b f3bd c1e4 fe3c 26a1 7ebb 4be7 913c
00000360: 6d8c 233d ea46 343e 4ba0 de3d db2f 8d3d
00000370: d0cf 103c 12ed 9e3d a9b6 67bb cf22 273c
00000380: aabb d33d ec98 d2bb ca97 02be 2cee 1abd
00000390: 9d53 053e b8e2 ccbd 2ba1 0ebd ed5b ca3c
000003a0: cc1a 013e 39c1 4b3e e098 9b3d 9951 8f3c
000003b0: df8f 1b3e 8288 0d3d 8e7d 0b3d 784c 51bd
000003c0: 78d2 ec3d 6705 7fbd 4bcb a83d 7a4b 2a3d
000003d0: 8a54 323e ea26 30ba 662f 1c3e 9528 8dbb
000003e0: da59 e83d 40b1 9e3d 1ce5 12bc c10b 30bd
000003f0: 78ff df3d 2df7 3fbb cf2b 013e 5ef7 913d

net.1.net.2.bias f4 [8]
0.050769694 0.025804538 0.04209327 -0.11342628 0.07378032 0.105611965 -0.027381925 -0.077269495
00000000: e2f3 4f3d 0a64 d33c fe69 2c3d 0a4c e8bd
00000010: 231a 973d 164b d83d 0f50 e0bc 783f 9ebd

net.1.net.4.weight f4 [8, 3, 4, 4]
0.020094855 0.14702877 0.17012264 0.04553577 0.18139409 0.19029315 0.16104227 0.14363332
0.15664834 0.17016393 0.20359644 0.16015516 0.0041499315 0.14408945 0.21740055 0.06809487
0.0042534797 0.097610325 0.12770826 0.03495769 0.09546502 0.095454074 0.07204069 0.06985427
0.08272309 0.07316323 0.054860167 0.054443266 0.021228855 0.09282153 0.10914632 0.03030225
0.08121747 0.09581063 0.0029485435 -0.017975042 0.060407083 0.059138212 0.020375915 0.020866267
-0.03393094 -0.008943798 0.047973633 0.021316957 0.012447578 0.047820255 0.037214484 -0.0028308714
-0.060329605 -0.034813438 -0.03815297 -0.029350102 -0.072539434 -0.012498483 -0.012915082 -0.038707417
-0.08738996 -0.01436552 -0.033034872 -0.056154538 -0.063151106 -0.036781143 -0.041306686 -0.031758003
0.09071634 0.12544902 0.12065737 0.08846673 0.09959331 0.1850361 0.1773318 0.09932454
0.105352856 0.18810426 0.16864783 0.10217668 0.06827377 0.123856805 0.12619121 0.07876898
0.19989878 0.25326467 0.268035 0.21082231 0.22818427 0.318984 0.3267443 0.22725473
0.26188502 0.3503067 0.33754998 0.24714355 0.18482153 0.25334212 0.26519662 0.19285956
0.06399398 0.033880636 -0.031115884 0.04866125 -0.011064372 -0.117066555 -0.12425728 -0.027905053
-0.04484996 -0.2529674 -0.24019846 -0.04669586 0.05194107 -0.06679432 -0.12199665 0.04069331
0.04878683 0.024458142 -0.0002806046 0.020525541 -0.08830876 -0.19115916 -0.10763006 0.002980587
-0.09327144 -0.32308444 -0.24650958 -0.013871286 0.06622705 -0.10681419 -0.13926034 0.025292134
0.010171652 -0.1017541 -0.03684268 0.047813985 -0.08504579 -0.277106 -0.20030673 -0.030340448
-0.17940459 -0.33588344 -0.3075905 -0.15030426 -0.066047624 -0.17826676 -0.17990668 -0.067767695
-0.07375759 -0.19908467 -0.1941549 -0.12406822 -0.15478703 -0.30405492 -0.29991314 -0.15670864
-0.2116009 -0.36943436 -0.3606507 -0.23768194 -0.12867767 -0.25361958 -0.29041657 -0.17532805
-0.09408931 -0.17853463 -0.1954492 -0.113455534 -0.16728027 -0.30062294 -0.27761632 -0.1406606
-0.2107039 -0.34773868 -0.33240202 -0.19558914 -0.102703385 -0.20678465 -0.24608248 -0.114675984
-0.12502691 -0.20326877 -0.19761948 -0.10497791 -0.17998087 -0.30431414 -0.2995954 -0.13681851
-0.17745794 -0.33310634 -0.36410594 -0.18578407 -0.123596735 -0.21406634 -0.24393064 -0.10209232
-0.07678472 -0.042127766 -0.11677531 -0.1032594 -0.09062972 -0.10768451 -0.21890208 -0.14546938
-0.03384102 -0.012140752 -0.1431531 -0.07722126 -0.05260567 -0.017131452 -0.08572019 -0.09174523
-0.08890236 -0.11840165 -0.15115777 -0.090522155 -0.095548816 -0.19964606 -0.2635804 -0.14045775
-0.05060207 -0.08554283 -0.13195837 -0.081368215 -0.07574241 -0.072078295 -0.13031514 -0.10693627
-0.041202854 -0.054386377 -0.123568915 -0.08077591 -0.104718946 -0.16750722 -0.22003889 -0.13628374
-0.01328572 -0.11219503 -0.110677995 -0.004644698 -0.019900376 -0.07337259 -0.09752554 -0.04098031
-0.08027854 -0.2363693 -0.15302633 -0.06314811 -0.24601786 -0.40642416 -0.24753493 -0.106923334
-0.20559916 -0.31611994 -0.17112021 -0.07549101 -0.047111902 -0.15047836 -0.074760765 -0.013426213
00000000: f79d a43c b68e 163e a134 2e3e b783 3a3d
00000010: 5fbf 393e 35dc 423e 44e8 243e 9d14 133e
00000020: 6c68 203e 743f 2e3e 967b 503e b7ff 233e
00000030: 26fc 873b 2f8c 133e 409e 5e3e 5375 8b3d
00000040: c660 8b3b ece7 c73d f4c5 023e cb2f 0f3d
00000050: 2a83 c33d 6d7d c33d 128a 933d c10f 8f3d
00000060: b96a a93d 9bd6 953d 0eb5 603d e7ff 5e3d
00000070: 23e8 ad3c 3719 be3d 1b88 df3d 6d3c f83c
00000080: 5855 a63d 5d38 c43d 5a3c 413b 6540 93bc
00000090: 6b6d 773d e93a 723d 64eb a63c bcef aa3c
000000a0: 2bfb 0abd 0289 12bc 0080 443d e6a0 ae3c
000000b0: edf0 4b3c 2cdf 433d 376e 183d 2486 39bb
000000c0: 2d1c 77bd 8998 0ebd 4a46 1cbd a06f f0bc
000000d0: 8e8f 94bd 70c6 4cbc c899 53bc ab8b 1ebd
000000e0: 82f9 b2bd 5c5d 6bbc 934f 07bd 4d02 66bd
000000f0: 5e55 81bd d3a7 16bd 3331 29bd ae14 02bd
00000100: 7dc9 b93d b575 003e 361b f73d 0c2e b53d
00000110: 94f7 cb3d 1a7a 3d3e 7896 353e aa6a cb3d
00000120: 3dc3 d73d 679e 403e 04b2 2c3e 0242 d13d
00000130: 1ed3 8b3d a3a8 fd3d 4538 013e a251 a13d
00000140: 44b2 4c3e e8ab 813e e23b 893e cee1 573e
00000150: 23a9 693e df51 a33e 074b a73e 77b5 683e
00000160: cb15 863e 665b b33e 5ad3 ac3e 3313 7d3e
00000170: db41 3d3e 0fb6 813e dac7 873e fa7c 453e
00000180: 470f 833d 6cc6 0a3d bde6 febc 0551 473d
00000190: 5747 35bc 97c0 efbd 9a7a febd 2399 e4bc
000001a0: 97b4 37bd f184 81be 96f6 75be 2844 3fbd
000001b0: 29c0 543d 76cb 88bd 61d9 f9bd 07ae 263d
000001c0: b3d4 473d 715c c83c 1d1e 93b9 2e25 a83c
000001d0: 39db b4bd 3abf 43be 266d dcbd f455 433b
000001e0: 1905 bfbd 536b a5be 026d 7cbe 6444 63bc
000001f0: 0ca2 873d 66c1 dabd 439a 0ebe 7331 cf3c
00000200: 00a7 263c 7464 d0bd 5ae8 16bd 99d8 433d
00000210: 7d2c aebd d6e0 8dbe 351d 4dbe 888c f8bc
00000220: d6b5 37be eaf8 abbe 817c 9dbe 5ce9 19be
00000230: fa43 87bd 908b 36be 7539 38be cac9 8abd
00000240: 380e 97bd dadc 4bbe 8bd0 46be 7b17 febd
00000250: 7e80 1ebe 16ad 9bbe 378e 99be 3b78 20be
00000260: e8ad 58be 8026 bdbe 35a7 b8be e562 73be
00000270: 14c4 03be 6dda 81be 7bb1 94be 3289 33be
00000280: e5b1 c0bd c8d1 36be d623 48be 605b e8bd
00000290: 854b 2bbe 40eb 99be ba23 8ebe 5509 10be
000002a0: c3c2 57be ce0a b2be 9930 aabe 8548 48be
000002b0: 2756 d2bd 5bbf 53be 0cfd 7bbe 3edb eabd
000002c0: 0e07 00be b025 50be c35c 4abe a9fe d6bd
000002d0: e84c 38be 10cf 9bbe 9164 99be 271a 0cbe
000002e0: 89b7 35be ea8c aabe 186c babe 2e3e 3ebe
000002f0: 4920 fdbd 3534 5bbe f4c8 79be c715 d1bd
00000300: 4f41 9dbd 2a8e 2cbd e527 efbd aa79 d3bd
00000310: 139c b9bd b289 dcbd de27 60be edf5 14be
00000320: e29c 0abd 01ea 46bc ba96 12be 2e26 9ebd
00000330: 0b79 57bd 4257 8cbc 118e afbd ece4 bbbd
00000340: 7112 b6bd 907c f2bd 1ac9 1abe ae63 b9bd
00000350: 19af c3bd 0470 4cbe 03f4 86be 28d4 0fbe
00000360: 1e44 4fbd 1431 afbd 1820 07be 61a4 a6bd
00000370: d61e 9bbd c99d 93bd 5571 05be 6701 dbbd
00000380: 53c4 28bd 40c4 5ebd b311 fdbd d76d a5bd
00000390: e376 d6bd 0387 2bbe e051 61be f78d 0bbe
000003a0: 59ac 59bc 82c6 e5bd 25ab e2bd 8d32 98bb
000003b0: 1d06 a3bc 5e44 96bd 78bb c7bd f8da 27bd
000003c0: 1369 a4bd cb0a 72be efb2 1cbe cc53 81bd
000003d0: 1bec 7bbe d416 d0be cc79 7dbe 9ffa dabd
000003e0: 9688 52be 79da a1be 233a 2fbe 089b 9abd
000003f0: 69f8 40bd 0017 1abe 2c1c 99bd 9ef9 5bbc

net.1.net.4.bias f4 [3]
0.48116493 0.5713896 0.5065855
00000000: 405b f63e 9746 123f 96af 013f
