.model/model_04020728.ckpt (torch, 277619 bytes, 16 tensors)

net.0.net.0.weight f4 [8, 3, 3, 3]
0.045470998 0.080273405 0.21255994 0.0958996 -0.012606258 0.18412003 -0.041004978 0.2489264
0.14927213 0.012692627 0.18451513 0.046080425 0.028131979 0.2533219 0.20827022 -0.06890142
0.17192554 0.22773571 0.16307417 0.22788595 0.11321334 -0.09086012 -0.044549406 0.09928094
0.15212713 0.06243756 0.013179937 0.08921892 -0.17478782 -0.17813201 -0.21917313 -0.04487962
0.024835935 0.06055767 0.051272266 -0.11468022 0.02665407 -0.19585158 0.011959276 -0.075870916
-0.11836709 -0.03190818 -0.11242255 -0.10264038 -0.028330019 -0.20853895 -0.15508713 0.05469208
-0.16184908 0.1370228 -0.17693734 -0.033670474 -0.15403962 -0.15144809 -0.1376212 -0.106955975
-0.21229264 0.026917886 0.07805524 0.12728433 -0.2030974 -0.046876643 -0.002447942 0.06550922
-0.08703791 -0.21333216 -0.16113047 -0.092725046 -0.1871756 0.046357892 -0.07787595 -0.2310482
-0.18369699 -0.17493984 0.14892215 0.026625637 0.05001733 -0.11709691 0.10198259 -0.11881468
-0.17423424 -0.06158076 0.15271597 0.2013157 0.14974196 0.0585787 0.30669472 0.17190541
-0.037434705 0.09175099 0.058455348 0.04919066 -0.037916936 -0.07784831 -0.10458979 0.018513074
0.048794076 -0.13826141 -0.058836926 -0.021850606 -0.054392103 -0.1452902 -0.23385231 -0.15058668
-0.14396575 -0.031672515 0.07919221 -0.15205674 0.25361973 -0.008773974 0.1682382 0.20690246
0.05080131 -0.070118316 0.16606466 0.08323222 -0.02186059 0.036801487 -0.016449897 -0.21804199
0.16097642 0.12095616 -0.12900682 -0.15817669 0.14320526 -0.102018505 -0.103901856 0.085983396
-0.030116197 -0.13039543 -0.044918988 0.18313399 -0.18371801 -0.11737589 -0.22872673 -0.12108297
0.17502171 -0.055683065 0.054945957 -0.05152638 -0.054747764 -0.12937358 -0.2204741 0.07709905
-0.014889388 -0.02722454 0.046477735 0.1726499 -0.1648289 -0.009690564 0.08746717 0.1584899
-0.036102846 0.15234481 0.06233925 0.032333452 0.023077972 0.09984721 0.14861155 0.055612497
0.12466037 0.08549346 -0.1776684 -0.15071766 -0.15006727 -0.08883438 0.043949515 0.03549831
-0.1606198 -0.16776985 -0.15837008 0.13084099 0.040586412 0.13441926 -0.187548 -0.06628594
-0.03431745 -0.21130618 0.04716904 -0.14995179 -0.0017448451 -0.07714422 0.006770943 0.09680521
-0.048611198 -0.081529185 -0.18969516 0.16970891 -0.16572787 0.006951311 0.13347465 0.23131974
0.10039222 0.039994102 0.08288258 0.18637955 0.111013524 0.009444636 -0.05274834 -0.07671295
0.17570305 0.21170142 0.21866654 0.19361207 0.18796256 -0.070653796 0.10820295 -0.0010747458
-0.06467292 0.101807006 0.1410165 -0.0049975 0.14126278 0.08424964 0.26641572 0.28501734
00000000: cc3f 3a3d 6266 a43d 50a9 593e 0267 c43d
00000010: 7a8a 4ebc f689 3c3e d6f4 27bd 90e6 7e3e
00000020: cbda 183e bcf4 4f3c 89f1 3c3e d4be 3c3d
00000030: 0975 e63c 68b3 813e ca44 553e 301c 8dbd
00000040: 400d 303e 8d33 693e eafc 263e ef5a 693e
00000050: 65dc e73d df14 babd 7079 36bd ce53 cb3d
00000060: 37c7 1b3e 87be 7f3d aaf0 573c 69b8 b63d
00000070: 94fb 32be 3d68 36be ec6e 60be b1d3 37bd
00000080: bb74 cb3c 520b 783d de02 523d 77dd eabd
00000090: a359 da3c 518d 48be d7f0 433c 3662 9bbd
000000a0: 726a f2bd 27b2 02bd cb3d e6bd 1f35 d2bd
000000b0: 5b14 e8bc 3c8b 55be 29cf 1ebe cd04 603d
000000c0: c4bb 25be b44f 0c3e 102f 35be 0dea 09bd
000000d0: 90bc 1dbe 3515 1bbe 92ec 0cbe bc0b dbbd
000000e0: 3e63 59be e682 dc3c 6ddb 9f3d d356 023e
000000f0: c4f8 4fbe b901 40bd a76d 20bb b329 863d
00000100: ef40 b2bd bf73 5abe 63ff 24be a1e6 bdbd
00000110: f6aa 3fbe c6e1 3d3d 6d7d 9fbd e697 6cbe
00000120: 101b 3cbe 6e23 33be 0c7f 183e 021e da3c
00000130: f9de 4c3d 81d0 efbd 40dc d03d 1c55 f3bd
00000140: 766a 32be 1b3c 7cbd 9361 1c3e b425 4e3e
00000150: f555 193e 38f0 6f3d 1707 9d3e f907 303e
00000160: 2255 19bd f1e7 bb3d e06e 6f3d 257c 493d
00000170: ca4e 1bbd ef6e 9fbd 2c33 d6bd bba8 973c
00000180: 4cdc 473d 6694 0dbe fdfe 70bd 0b00 b3bc
00000190: 41ca 5ebd f4c6 14be fb76 6fbe 6533 1abe
000001a0: c26b 13be 0abb 01bd 872f a23d c3b4 1bbe
000001b0: 72da 813e b7c0 0fbc a246 2c3e 3dde 533e
000001c0: 0915 503d 319a 8fbd db0c 2a3e a775 aa3d
000001d0: fb14 b3bc 28bd 163d efc1 86bc 6646 5fbe
000001e0: 01d7 243e ddb7 f73d 5d1a 04be 12f9 21be
000001f0: 66a4 123e 14ef d0bd 7fca d4bd 1018 b03d
00000200: 3eb6 f6bc 6186 05be f9fc 37bd 7a87 3b3e
00000210: 9320 3cbe c562 f0bd 5737 6abe 59fa f7bd
00000220: e438 333e ed13 64bd 030f 613d 530d 53bd
00000230: 313f 60bd 827a 04be f6c3 61be 1be6 9d3d
00000240: 9ff2 73bc 0006 dfbc 705f 3e3d 23cb 303e
00000250: e8c8 28be 2cc5 1ebc fd21 b33d 2d4b 223e
00000260: 94e0 13bd 4700 1c3e 7157 7f3d 1570 043d
00000270: 040e bd3c b27c cc3d a02d 183e eec9 633d
00000280: f04d ff3d 3217 af3d b4ee 35be bb55 1abe
00000290: 3cab 19be cdee b5bd 6804 343d ad66 113d
000002a0: 8479 24be dccb 2bbe c42b 22be 2efb 053e
000002b0: f03d 263d 34a5 093e 950c 40be ecc0 87bd
000002c0: 7490 0cbd a660 58be 5334 413d f68c 19be
000002d0: 49b3 e4ba cafd 9dbd c9de dd3b cf41 c63d
000002e0: 891c 47bd c6f8 a6bd 733f 42be 2cc8 2d3e
000002f0: 91b4 29be d3c7 e33b 94ad 083e 15df 6c3e
00000300: 709a cd3d dbd0 233d 58be a93d 48da 3e3e
00000310: 0f5b e33d adbd 1a3c a50e 58bd ae1b 9dbd
00000320: 80eb 333e 42c8 583e 1fea 5f3e 3e42 463e
00000330: 4279 403e f0b2 90bd 8299 dd3d 7cde 8cba
00000340: 3c73 84bd 3180 d03d a166 103e 12c2 a3bb
00000350: 31a7 103e 138b ac3d a467 883e cbed 913e

net.0.net.0.bias f4 [8]
0.07332166 0.112895004 -0.038378973 0.4465166 0.06503533 0.74494237 0.0028452133 0.051843137
00000000: ab29 963d 7f35 e73d 4533 1dbd d39d e43e
00000010: 3e31 853d 8bb4 3e3f c276 3a3b 7859 543d

net.0.net.3.weight f4 [16, 8, 3, 3]
-0.019352308 -0.025012217 0.063472554 -0.048645418 0.01833911 -0.06844845 0.07901784 0.05849066
-0.090082906 0.040196527 0.057761498 -0.0692352 -0.038952027 -0.10785659 0.033706903 0.10560105
0.048925124 0.13172822 -0.05309932 0.0065094465 0.12562121 0.08535013 0.072755784 0.014028779
0.11141834 -0.0767563 0.09429176 0.12825581 -0.009509485 0.17827606 0.01060577 0.12261321
0.11155787 0.18155108 0.2037422 0.15119044 0.078256965 0.121640466 0.15349846 0.077118695
-0.06120821 0.06008549 0.12793912 0.12941122 -0.035177734 0.15762806 -0.049177058 0.13397364
0.12699795 -0.13845271 -0.18523462 0.07099569 -0.0049810736 -0.10018572 -0.019687267 -0.07744088
0.05500266 -0.0048912317 -0.0012299952 -0.13533871 0.100584865 0.08156155 -0.0664285 0.07581688
0.062200807 0.12140142 -0.021426726 0.029655905 0.008910259 0.13344812 -0.10902038 -0.18518852
0.17692186 -0.10749258 -0.061870035 -0.0005078523 -0.20995733 -0.18911593 0.096317954 -0.04929885
0.110126995 0.04904074 0.080605276 0.08898366 -0.07019562 0.01753521 -0.025171667 0.0689802
-0.011737941 -0.047361452 0.091954224 0.032286644 0.14060982 -0.010836579 0.12402827 -0.028576473
-0.040327575 -0.07858414 0.03920366 -0.08294631 -0.061670054 0.041746084 0.09595271 0.06978733
-0.07001357 0.012960241 -0.009082058 -0.020757405 0.047296382 -0.06391984 0.03947324 0.05506066
0.023928398 -0.060396407 0.10272078 0.09853741 -0.0075718877 0.039283346 0.0059752613 -0.048960518
0.18012518 -0.02290286 -0.026475286 0.17626317 0.13919511 -0.07964067 0.107681856 -0.103081346
0.08070883 0.057152566 0.10642655 0.13911144 -0.023331529 0.112333655 0.08421846 0.16975346
-0.04746609 -0.12509425 0.16050765 -0.10617099 -0.17949641 0.028125362 0.117225185 0.027934393
-0.033851895 -0.0899044 0.03162111 0.047671482 0.09497244 0.03351796 0.09989194 -0.045246404
0.13261408 0.14524525 -0.06878862 0.1512381 0.019046783 0.0011929573 0.011697446 -0.04748961
0.034754105 -0.10723794 -0.07242293 0.12433739 -0.064252205 0.07220356 -0.096651666 -0.17494652
-0.036971036 0.034549616 -0.13142332 0.01495073 0.10413367 0.058857635 0.05128312 0.06809037
0.068533435 -0.0047994484 0.21231033 0.21933828 -0.030130718 0.0002484717 -0.0042355424 -0.06787589
0.14176783 0.14112522 0.19317122 0.0052225706 0.03675917 0.0255319 0.18196067 0.16243586
0.055354185 0.036084536 0.19711167 0.13424149 0.25322098 0.24980043 -0.013183641 -0.007235899
-0.07807034 0.02901396 1.7020764e-06 -0.0665992 -0.0021402324 -0.071566276 0.10954609 0.098200776
0.017521871 0.046015956 0.0051183016 0.116066724 0.0887457 0.078871645 0.09131524 -0.0024139627
-0.12122622 0.05321869 -0.0018945719 -0.018874086 -0.063517906 -0.016876912 -0.027814109 -0.08869275
0.20332156 -0.048327744 -0.0023582533 -0.006216702 0.08118965 0.082934715 0.11151787 -0.053774096
0.068297766 0.015994657 0.09872687 -0.047856916 -0.019100988 0.0040067304 0.04805488 0.11109132
0.013198497 0.018382587 0.05266158 0.040220257 0.040615704 0.12713733 0.079143874 -0.053647164
-0.013596515 0.005161703 -0.073240526 0.04303586 -0.09513906 -0.06411689 0.0129216 -0.11941575
00000000: bb88 9ebc 6ce6 ccbc e6fd 813d 6b40 47bd
00000010: e73b 963c b32e 8cbd 1bd4 a13d e793 6f3d
00000020: 637d b8bd 1da5 243d 5297 6c3d 2fcb 8dbd
00000030: 298c 1fbd eae3 dcbd 4010 0a3d 5d45 d83d
00000040: b665 483d c3e3 063e ac7e 59bd 324d d53b
00000050: d9a2 003e 0dcc ae3d fc00 953d f7d8 653c
00000060: 4c2f e43d 6832 9dbd 0a1c c13d 7e55 033e
00000070: accd 1bbc 008e 363e d3c3 2d3c a21c fb3d
00000080: 7478 e43d 87e8 393e cca1 503e abd1 1a3e
00000090: 3045 a03d a31e f93d b32e 1d3e 68f0 9d3d
000000a0: 76b5 7abd 341c 763d 7902 033e 6084 043e
000000b0: 8716 10bd 4069 213e e26d 49bd 6330 093e
000000c0: c00b 023e 8cc6 0dbe 25ae 3dbe 3066 913d
000000d0: 4638 a3bb 2c2e cdbd 3147 a1bc 5399 9ebd
000000e0: 784a 613d a046 a0bb ca37 a1ba 3b96 0abe
000000f0: 70ff cd3d be09 a73d aa0b 88bd e145 9b3d
00000100: 46c6 7e3d 4fa1 f83d 1a87 afbc f1f0 f23c
00000110: 56fc 113c a0a6 083e 1446 dfbd 0fa2 3dbe
00000120: 012b 353e 1225 dcbd 6f6b 7dbd 6421 05ba
00000130: 0eff 56be 9ba7 41be 5942 c53d 97ed 49bd
00000140: 438a e13d f1de 483d 6114 a53d 113d b63d
00000150: b9c2 8fbd 00a6 8f3c d034 cebc 7e45 8d3d
00000160: 7e50 40bc 15fe 41bd 7f52 bc3d 003f 043d
00000170: 05fc 0f3e e88b 31bc 8902 fe3d 3519 eabc
00000180: 872e 25bd b9f0 a0bd 0494 203d c1df a9bd
00000190: bd99 7cbd f1fd 2a3d db82 c43d a9ec 8e3d
000001a0: 4663 8fbd 3157 543c eacc 14bc 6f0b aabc
000001b0: dab9 413d 68e8 82bd b1ae 213d 4987 613d
000001c0: 7d05 c43c 3962 77bd 465f d23d fbcd c93d
000001d0: 991d f8bb 93e7 203d 20cc c33b d38a 48bd
000001e0: bc72 383e c79e bbbc b3e2 d8bc 557e 343e
000001f0: 2a89 0e3e a61a a3bd 4e88 dc3d 501c d3bd
00000200: ac4a a53d cf18 6a3d 2af6 d93d 3b73 0e3e
00000210: c321 bfbc 300f e63d ba7a ac3d dad3 2d3e
00000220: ce6b 42bd b518 00be 1e5c 243e 2d70 d9bd
00000230: e8cd 37be 2967 e63c c213 f03d abd6 e43c
00000240: 49a8 0abd cc1f b8bd 2385 013d 2c43 433d
00000250: e980 c23d 214a 093d 2594 cc3d 4b54 39bd
00000260: fccb 073e 2cbb 143e 0ce1 8cbd 29de 1a3e
00000270: 0008 9c3c 015d 9c3a a5a6 3f3c 7784 42bd
00000280: 525a 0e3d 919f dbbd 7952 94bd 9aa4 fe3d
00000290: a996 83bd 76df 933d 4ff1 c5bd 2e25 33be
000002a0: f16e 17bd e683 0d3d d693 06be e8f3 743c
000002b0: 0944 d53d b414 713d 400e 523d f772 8b3d
000002c0: 425b 8c3d b144 9dbb e167 593e 379a 603e
000002d0: b2d4 f6bc 4f45 8239 4eca 8abb 8402 8bbd
000002e0: 962b 113e 2183 103e adce 453e 1922 ab3b
000002f0: c990 163d 4628 d13c e653 3a3e 9655 263e
00000300: 12bb 623d 61cd 133d a4d7 493e 9a76 093e
00000310: 2ea6 813e afcb 7f3e 3300 58bc 1f1b edbb
00000320: 58e3 9fbd afae ed3c e672 e435 2965 88bd
00000330: 2443 0cbb 5791 92bd b359 e03d 7d1d c93d
00000340: 078a 8f3c 3a7b 3c3d 6db7 a73b 64b4 ed3d
00000350: 4ec0 b53d 7587 a13d 7c03 bb3d 9333 1ebb
00000360: 7445 f8bd d7fb 593d 4953 f8ba d49d 9abc
00000370: ad15 82bd 7341 8abc 6ada e3bc 8ba4 b5bd
00000380: 8733 503e 50f3 45bd ed8c 1abb 7ab5 cbbb
00000390: c246 a63d add9 a93d 7b63 e43d 3a42 5cbd
000003a0: b3df 8b3d 3a07 833c 5031 ca3d 9d05 44bd
000003b0: ad79 9cbc e44a 833b 32d5 443d d983 e33d
000003c0: 823e 583c 1497 963c abb3 573d ffbd 243d
000003d0: a75c 263d 4a30 023e 2f16 a23d 21bd 5bbd
000003e0: ebc3 5ebc 8123 a93b 21ff 95bd 5f46 303d
000003f0: 44d8 c2bd b74f 83bd 1eb5 533c 3f90 f4bd

net.0.net.3.bias f4 [16]
0.15017548 -0.033191998 0.041893207 0.16293104 0.21212381 0.274854 0.15573034 0.005801515
-0.08139792 0.1374267 0.10337532 0.2784591 -0.15165505 0.16485913 0.16695634 0.04714323
00000000: 9ac7 193e 55f4 07bd 3698 2b3d 65d7 263e
00000010: fc36 593e aab9 8c3e c677 1f3e a31a be3b
00000020: f4b3 a6bd 96b9 0c3e 71b6 d33d 3192 8e3e
00000030: 764b 1bbe d5d0 283e 9af6 2a3e 4219 413d

net.0.net.6.weight f4 [32, 16, 3, 3]
-0.02729422 -0.042582724 -0.0076401965 0.04506428 -0.001026786 0.06946201 -0.002192472 -0.015795745
0.049008355 0.034698498 0.054295447 0.06615286 -0.06331861 0.07219288 0.109558284 -0.016032355
-0.009150129 0.056330834 0.097316615 -0.015791921 0.07086963 0.04979085 -0.03646626 -0.12050612
0.085079744 -0.042024136 0.04607362 0.039723236 0.006594482 0.06269677 0.04463032 -0.04110562
0.08269226 0.028986491 -0.04958425 0.0871009 -0.003961471 0.07335441 0.00057003193 0.04027264
0.013957105 0.08793451 -0.001659778 0.020335257 0.024689073 0.07008527 0.048305023 -0.049294066
-0.048599537 0.002035264 0.0369045 0.032295164 0.02031781 0.074085005 -0.076432884 -0.0016125446
0.050836053 0.030126067 0.046763174 0.018044144 0.04680298 0.022322001 0.07186436 0.024030099
-0.04682649 0.06925439 0.086529866 0.059429936 -0.050188452 -0.017667122 -0.019115701 -0.0800958
-0.029510163 -0.12466395 0.0053959475 0.0349495 -0.14336571 -0.16197924 0.01144575 -0.07802481
-0.022093816 0.03130427 -0.07269563 0.010519546 0.030045984 -0.03504341 -0.09903252 -0.019844579
-0.055247705 0.023723189 -0.05047498 0.01878632 0.026496194 -0.029339382 0.07354893 -0.0031203474
-0.056342103 0.006932596 -0.022864074 0.04195066 0.02542749 0.076592326 -0.068611674 -0.008064337
0.047251925 0.035044685 -0.0547773 0.057361178 0.02745875 -0.051834602 0.10236306 0.02219944
0.060304776 0.048521157 0.06755952 -0.01718123 0.05559819 -0.05442024 0.02040758 0.1105131
0.045027975 -0.009504643 0.029980121 -0.076580346 -0.033257585 0.034425683 0.015115904 -0.076070234
0.00578113 0.087715395 -0.038994465 0.018141832 0.061896052 0.07473947 0.059599556 -0.06737137
0.09125041 0.11468394 0.06024563 0.016516225 0.11905131 0.027167948 -0.052563563 0.02520463
0.058764286 -0.10051446 0.03926989 -0.02953237 -0.07806614 -0.08506381 0.032934 -0.053642824
0.041410714 -0.115262456 -0.009105173 0.006443202 0.07185047 0.018693712 0.019488601 0.0992644
0.07575443 -0.008069699 -0.072262295 0.03326067 0.096454315 -0.16679221 -0.052234218 0.18835005
0.024168726 0.046442725 0.13700807 -0.06779526 0.11737619 0.03718113 -0.04159258 0.09746546
-0.048527036 -0.07780436 0.1699846 0.022164078 -0.01950039 0.11077276 0.08969408 0.099993795
0.14253578 0.14782032 0.053423364 0.22784048 0.14891088 -0.09923083 0.14942333 0.09525229
-0.010177499 0.14100046 0.19464253 -0.013111655 0.16222022 -0.00027298025 -0.043965805 -0.019777145
0.009691712 -0.090596214 0.001466168 -0.061910886 0.015390851 -0.025834108 -0.028585326 -0.08039065
-0.04189082 -0.0067984452 -0.052871607 0.05149806 0.05386782 -0.009834728 0.055934913 -0.01979967
-0.06601739 -0.0055688657 0.051377367 -0.22659256 -0.09297067 0.09519267 -0.13954319 -0.077417746
0.22106019 0.12169323 -0.109325446 0.07285243 -0.057772346 -0.30710706 0.10443884 0.04618632
-0.27643785 0.16012456 -0.030590134 0.017704576 -0.022854075 0.11597834 -0.044113923 -0.0268803
0.0006497518 0.039947182 0.07372419 -0.005407497 0.08829876 -0.055172298 -0.09459476 0.11077533
0.0849351 -0.09645499 0.036412265 -0.02887625 -0.11390866 0.046125848 -0.082624406 0.073055774
00000000: 2198 dfbc 396b 2ebd 9d5a fabb 5395 383d
00000010: 3995 86ba 1942 8e3d 94af 0fbb 1466 81bc
00000020: fcbc 483d 0320 0e3d e764 5e3d 277b 873d
00000030: 30ad 81bd dcd9 933d 1860 e03d 4956 83bc
00000040: 6cea 15bc 29bb 663d ef4d c73d 0f5e 81bc
00000050: 1924 913d 7ef1 4b3d a55d 15bd eacb f6bd
00000060: 4a3e ae3d 8021 2cbd b1b7 3c3d d5b4 223d
00000070: 8616 d83b 2a67 803d 48ce 363d 5e5e 28bd
00000080: 8f5a a93d 1475 ed3c db18 4bbd f561 b23d
00000090: 3acf 81bb d63a 963d 326e 153a ecf4 243d
000000a0: 57ac 643c 0217 b43d e88c d9ba 2096 a63c
000000b0: bd40 ca3c de88 8f3d 7ddb 453d 93e8 49bd
000000c0: 4f10 47bd 1062 053b 2c29 173d ef47 043d
000000d0: 8971 a63c e1b9 973d d888 9cbd 055c d3ba
000000e0: 7739 503d f1ca f63c be8a 3f3d 50d1 933c
000000f0: 7bb4 3f3d a1dc b63c 9f2d 933d c5da c43c
00000100: 22cd 3fbd 3fd5 8d3d 9236 b13d ce6c 733d
00000110: 6892 4dbd a4ba 90bc 8898 9cbc 4409 a4bd
00000120: 4cbf f1bc d04f ffbd 7dd0 b03b 3527 0f3d
00000130: 76ce 12be e3dd 25be f486 3b3c 79cb 9fbd
00000140: 17fe b4bc e838 003d 72e1 94bd 2d5a 2c3c
00000150: ff22 f63c ae89 0fbd 90d1 cabd 1991 a2bc
00000160: 6b4b 62bd 2257 c23c dabe 4ebd c5e5 993c
00000170: 8c0e d93c 2559 f0bc d2a0 963d be7e 4cbb
00000180: fac6 66bd d52a e33b 704d bbbc 75d4 2b3d
00000190: 504d d03c 70dc 9c3d 4784 8cbd 4820 04bc
000001a0: 3c8b 413d 048b 0f3d 2a5e 60bd 8ef3 6a3d
000001b0: 2cf1 e03c 8550 54bd b9a3 d13d 9adb b53c
000001c0: 2402 773d 1fbe 463d a55c 8a3d a7bf 8cbc
000001d0: edba 633d c2e7 5ebd cc2d a73c b154 e23d
000001e0: 416f 383d 5db9 1bbc df98 f53c 28d6 9cbd
000001f0: 1b39 08bd f201 0d3d b2a8 773c b6ca 9bbd
00000200: a26f bd3b 21a4 b33d a9b8 1fbd 2e9e 943c
00000210: b786 7d3d 0211 993d aa1e 743d 00fa 89bd
00000220: 7fe1 ba3d 6adf ea3d 1fc4 763d 094d 873c
00000230: 2cd1 f33d 518f de3c e44c 57bd f179 ce3c
00000240: d2b2 703d 86da cdbd 77d9 203d deed f1bc
00000250: 24e1 9fbd ef35 aebd cde5 063d 94b8 5bbd
00000260: 489e 293d b90e ecbd dd2d 15bc 7f21 d33b
00000270: 5726 933d 8e23 993c 8fa6 9f3c 224b cb3d
00000280: 2325 9b3d c536 04bc 41fe 93bd 573c 083d
00000290: d789 c53d 94cb 2abe 8cf3 55bd d6de 403e
000002a0: 7efd c53c ba3a 3e3d d84b 0c3e 3ed8 8abd
000002b0: ee62 f03d 3e4b 183d fb5c 2abd f99b c73d
000002c0: 49c4 46bd e457 9fbd 7110 2e3e 7191 b53c
000002d0: 48bf 9fbc d4dc e23d 88b1 b73d 8cc9 cc3d
000002e0: e6f4 113e 365e 173e 75d2 5a3d 044f 693e
000002f0: 187c 183e 8939 cbbd 6e02 193e a213 c33d
00000300: 86bf 26bc 6d62 103e 5f50 473e 44d2 56bc
00000310: 0f1d 263e ca1e 8fb9 7d15 34bd ae03 a2bc
00000320: fdc9 1e3c 828a b9bd 6f2c c03a 4596 7dbd
00000330: e829 7c3c 0da2 d3bc c62b eabc daa3 a4bd
00000340: b595 2bbd 7ec5 debb e68f 58bd a1ef 523d
00000350: 81a4 5c3d d721 21bc 021c 653d eb32 a2bc
00000360: 2034 87bd 087b b6bb 1371 523d e107 68be
00000370: 6867 bebd 60f4 c23d 69e4 0ebe 328d 9ebd
00000380: 9a5d 623e 4d3a f93d 05e6 dfbd a833 953d
00000390: b2a2 6cbd 233d 9dbe 08e4 d53d de2d 3d3d
000003a0: 4389 8dbe b1f7 233e 2998 fabc 3009 913c
000003b0: 7838 bbbc 0d86 ed3d cdb0 34bd 1334 dcbc
000003c0: 1b54 2a3a a89f 233d b5fc 963d 5f31 b1bb
000003d0: fbd5 b43d 59fc 61bd e6ba c1bd 2dde e23d
000003e0: 74f2 ad3d 328a c5bd 0725 153d e38d ecbc
000003f0: f248 e9bd 75ee 3c3d fc36 a9bd 449e 953d

net.0.net.6.bias f4 [32]
0.046868697 0.04303928 -0.042949315 5.1366314e-05 0.06633769 -0.002922447 0.19113086 -0.0040543885
-0.010815005 0.0335066 0.13145946 -0.07659726 0.05400606 0.019321121 -0.0085495785 -0.02339422
0.26063496 0.2415313 0.022806428 0.12501475 0.21926533 0.2100718 0.13959616 -0.018872943
-0.016038282 0.09852875 0.018583484 0.041976903 0.09834575 0.030406363 0.035006855 0.33621317
00000000: 64f9 3f3d f549 303d 9feb 2fbd 2972 5738
00000010: 0edc 873d 8686 3fbb cfb7 433e adda 84bb
00000020: 6b31 31bc 373e 093d 4f9d 063e 06df 9cbd
00000030: 7535 5d3d 5447 9e3c 8813 0cbc 3ca5 bfbc
00000040: f271 853e fb53 773e 8cd4 ba3c de03 003e
00000050: 1787 603e 101d 573e 4cf2 0e3e 6e9b 9abc
00000060: b762 83bc 71c9 c93d 643c 983c f9ef 2b3d
00000070: 7f69 c93d c416 f93c 5963 0f3d 2224 ac3e

net.0.net.9.weight f4 [64, 32, 3, 3]
-0.038961943 -0.0064508207 -0.005803397 0.008129553 -0.120026216 -0.08144253 -0.06630269 -0.06623863
-0.000987531 -0.061211344 0.09957645 -0.028373903 0.045965627 -0.055829316 0.016606579 0.0005650333
0.051711805 0.022105323 -0.069407575 0.08882652 0.009047148 -0.07813795 -0.02045053 -0.058347378
-0.040636566 -0.0069905985 0.050584193 -0.07089632 0.0824448 0.021895511 0.07486375 0.18325299
0.038843445 0.040568892 0.12086897 0.06262395 -0.024941161 0.06942611 0.06551446 -0.05709307
-0.07106283 -0.0475932 0.02581122 -0.014156728 -0.10038298 0.0031179008 0.0659019 0.005465112
0.11129121 0.18155566 0.01700539 0.055097427 0.14421082 0.059845835 -0.00030996202 -0.10667408
0.042829897 0.08525231 -0.0069184215 -0.064050235 0.020653618 -0.12586254 -0.15020944 -0.009959088
0.0048950873 0.0065717273 0.02254644 0.00028658332 -0.09096396 -0.034504812 -0.058767855 -0.11897194
-0.095038645 -0.018350726 -0.07216073 0.116749056 0.094005704 0.07945722 0.09156983 0.1116277
0.0020879877 -0.057987638 -0.062841736 0.0036178993 0.010573354 -0.09830256 -0.038344737 0.0052557196
-0.07025072 -0.10169743 -0.03782088 0.054972548 -0.062070265 0.10559942 0.12405585 0.037215427
-0.043584183 0.09111865 -0.08259094 -0.02984939 0.063432425 0.03854276 0.014745713 0.26879427
0.017700186 -0.16335201 0.17464551 0.054792896 -0.055405658 0.021110265 0.024766691 -0.056184605
-0.12995262 -0.024567215 0.021738922 -0.0089427475 0.09779445 -0.04374226 0.012971276 -0.0011825635
0.013479899 0.08126467 -0.014485547 0.028589468 0.09956173 0.010190358 0.005768013 0.10841326
0.057158493 -0.024593469 0.02997104 0.062270198 0.0067571406 -0.0887321 0.053158063 -0.0916723
0.0039059075 0.03628576 0.019784736 0.02613615 -0.07994291 -0.02516755 -0.11985098 -0.02745169
-0.06530303 -0.03071849 -0.12911695 -0.09072827 0.05624681 -0.076261796 -0.073317215 0.08076273
-0.008000045 -0.03946036 0.06578735 0.059825268 0.08893355 0.023431737 -0.057168707 0.09465266
-0.055635557 -0.12257525 -0.03399324 0.04820108 0.0012596035 0.008132062 0.12041861 0.04699238
0.084817246 0.037076056 0.03062701 -0.056189895 0.048558548 -0.043880384 -0.006152266 -0.10107616
-0.062654555 0.08079198 -0.035996266 -0.048647385 0.015479653 0.0633375 -0.01334677 0.1165979
0.15467581 0.055232752 -0.024342623 0.10023978 -0.022517165 0.041130006 -0.051088657 -0.032492973
-0.074136846 -0.03375768 -0.00020158 -0.0088585345 0.0147088645 -0.013594889 -0.04476717 0.02464938
0.00773916 0.010431045 -0.11719487 -0.05787058 0.06257516 0.049000088 -0.021906612 -0.10164751
-0.13893574 0.014336224 0.016305376 -0.1100693 -0.07261416 -0.062936194 -0.09294084 -0.028462961
0.0093697915 0.09246743 -0.076524734 0.048222397 0.099000424 0.109407365 -0.080400236 0.07644954
0.0057769855 -0.026831744 0.038956083 0.0018621931 -0.047685087 0.073129565 -0.05499887 -0.023257159
0.11368542 -0.007871839 -0.06202178 -0.014915722 -0.010812882 -0.1140462 -0.06975915 -0.10342535
-0.07800198 -0.076104045 0.042302277 -0.03926863 -0.13797717 -0.051682677 0.052171443 -0.06348702
-0.023869006 -0.025587594 -0.27069455 -0.114339575 0.04395434 -0.040012807 -0.03183229 0.030830957
00000000: 8f96 1fbd 6861 d3bb 6c2a bebb d131 053c
00000010: 4ed0 f5bd 57cb a6bd b4c9 87bd 1ea8 87bd
00000020: 0b70 81ba bfb8 7abd bdee cb3d 6370 e8bc
00000030: 7446 3c3d 48ad 64bd 850a 883c be1e 143a
00000040: c2cf 533d 3916 b53c 8f25 8ebd aeea b53d
00000050: 7d3a 143c ca06 a0bd df87 a7bc a9fd 6ebd
00000060: 8772 26bd 6411 e5bb 5f31 4f3d 1732 91bd
00000070: d2d8 a83d 375e b33c 2a52 993d aca6 3b3e
00000080: 4e1a 1f3d 912b 263d 278a f73d fc40 803d
00000090: 6851 ccbc 472f 8e3d 722c 863d 6cda 69bd
000000a0: 6489 91bd 16f1 42bd 0d72 d33c 9ff1 67bc
000000b0: 9895 cdbd b255 4c3b 93f7 863d af14 b33b
000000c0: a5ec e33d bae9 393e e34e 8b3c d7ad 613d
000000d0: 00ac 133e e820 753d 6682 a2b9 f177 dabd
000000e0: 676e 2f3d c398 ae3d edb3 e2bb c52c 83bd
000000f0: c731 a93c 1ce2 00be 81d0 19be 712b 23bc
00000100: f866 a03b a557 d73b 50b3 b83c 9040 9639
00000110: 504b babd eb54 0dbd 90b6 70bd 8fa7 f3bd
00000120: 9fa3 c2bd 4354 96bc 01c9 93bd 211a ef3d
00000130: 1086 c03d 78ba a23d f788 bb3d 109d e43d
00000140: 9fd6 083b 7284 6dbd 2bb3 80bd 471a 6d3b
00000150: dc3b 2d3c da52 c9bd 5f0f 1dbd 2c38 ac3b
00000160: 9cdf 8fbd be46 d0bd 11ea 1abd e52a 613d
00000170: 643d 7ebd 8244 d83d fe10 fe3d 346f 183d
00000180: 5485 32bd 6a9c ba3d 7025 a9bd b586 f4bc
00000190: dce8 813d 03df 1d3d 0198 713c 679f 893e
000001a0: fbff 903c c045 27be 46d6 323e 846e 603d
000001b0: 0bf1 62bd 6fef ac3c 84e3 ca3c d421 66bd
000001c0: 4d12 05be 2f41 c9bc d315 b23c 9a84 12bc
000001d0: 7548 c83d 162b 33bd 7a85 543c 3f00 9bba
000001e0: cbda 5c3c 176e a63d ca54 6dbc 7634 ea3c
000001f0: 05e7 cb3d 76f5 263c 9a01 bd3b c507 de3d
00000200: 061f 6a3d 3e78 c9bc d485 f53c 090f 7f3d
00000210: 016b dd3b 2db9 b5bd 45bc 593d b0be bbbd
00000220: 41fa 7f3b 61a0 143d 9913 a23c 7b1b d63c
00000230: 1cb9 a3bd 2e2c cebc 6e74 f5bd 5ee2 e0bc
00000240: 98bd 85bd 58a5 fbbc 3c37 04be becf b9bd
00000250: 0e63 663d 252f 9cbd 5627 96bd ee66 a53d
00000260: 9f12 03bc 30a1 21bd 85bb 863d 570b 753d
00000270: cb22 b63d eaf3 bf3c bc29 6abd 41d9 c13d
00000280: 1ce2 63bd bc08 fbbd 7f3c 0bbd 7f6e 453d
00000290: 4819 a53a 573c 053c 089e f63d 157b 403d
000002a0: aab4 ad3d 10dd 173d 7fe5 fa3c 6027 66bd
000002b0: 54e5 463d ebbb 33bd f398 c9bb 0501 cfbd
000002c0: 0851 80bd 4476 a53d d270 13bd 7b42 47bd
000002d0: 5f9e 7d3c 17b7 813d 69ac 5abc e1ca ee3d
000002e0: 5663 1e3e bd3b 623d 2e6a c7bc 844a cd3d
000002f0: eb75 b8bc f077 283d 5742 51bd 5a17 05bd
00000300: 0fd5 97bd 7e45 0abd 385f 53b9 6323 11bc
00000310: 73fd 703c 19bd 5ebc c85d 37bd 7fed c93c
00000320: c898 fd3b f9e6 2a3c dd03 f0bd b409 6dbd
00000330: 6827 803d 51b4 483d 7f75 b3bc 922c d0bd
00000340: 2c45 0ebe 7be2 6a3c da92 853c 036c e1bd
00000350: bcb6 94bd b1e4 80bd c457 bebd 282b e9bc
00000360: c183 193c 905f bd3d 00b9 9cbd d984 453d
00000370: bcc0 ca3d f810 e03d e1a8 a4bd 9491 9c3d
00000380: de4c bd3b 3fce dbbc 6a90 1f3d d514 f43a
00000390: 7051 43bd f4c4 953d 7f46 61bd cc85 bebc
000003a0: e7d3 e83d e3f8 00bc 8d0a 7ebd 1361 74bc
000003b0: 8428 31bc 0e91 e9bd e3dd 8ebd abd0 d3bd
000003c0: 81bf 9fbd 70dc 9bbd 2745 2d3d 25d8 20bd
000003d0: e349 0dbe 37b1 53bd b9b1 553d 7c05 82bd
000003e0: ef88 c3bc 139d d1bc 7a98 8abe de2a eabd
000003f0: 7709 343d 78e4 23bd 9362 02bd 3491 fc3c

net.0.net.9.bias f4 [64]
-0.096003205 -0.066179246 0.04644965 0.017411668 0.15036383 0.11494604 -0.08245951 0.06294721
-0.057786264 0.17324659 -0.007101166 0.12703015 0.06982964 0.08507945 0.058404725 0.07985549
-0.10974545 0.032287814 -0.11501744 -0.02052965 -0.0935407 0.02811129 0.052417606 0.030221378
0.01738502 0.022026772 0.1712424 0.05774219 -0.03149601 0.036915563 0.053223103 0.055081844
0.05143575 -0.07077717 0.069390684 0.039660178 0.05812746 -0.0017854702 0.12002768 -0.07228743
-0.09231195 0.11265506 0.017808873 0.053924736 0.08734026 0.017834937 -0.019745117 -0.0009457714
0.081637196 -0.042174563 0.0896891 -0.09127119 0.10658517 0.1722627 0.00234217 0.11299294
0.037065763 0.1792631 -0.004721158 0.058552023 0.025637174 0.02186116 -0.060891386 -0.19906296
00000000: 549d c4bd fc88 87bd fd41 3e3d eaa2 8e3c
00000010: faf8 193e d468 eb3d 88e0 a8bd 78ea 803d
00000020: 4ab1 6cbd 8e67 313e e6b0 e8bb 3114 023e
00000030: d802 8f3d 223e ae3d cb39 6f3d 468b a33d
00000040: 39c2 e0bd 3a40 043d 438e ebbd cc2d a8bc
00000050: 4492 bfbd a649 e63c d8b3 563d d392 f73c
00000060: 086b 8e3c 7d71 b43c 2b5a 2f3e 1383 6c3d
00000070: f601 01bd c634 173d 7800 5a3d 809d 613d
00000080: 4bae 523d 9ff3 90bd b41c 8e3d b672 223d
00000090: 0f17 6e3d 7006 eaba 13d1 f53d 6f0b 94bd
000000a0: 0c0e bdbd b2b7 e63d eae3 913c 2fe0 5c3d
000000b0: 73df b23d 931a 923c 83c0 a1bc a5ed 77ba
000000c0: 6731 a73d 3cbf 2cbd ebae b73d 64ec babd
000000d0: 5349 da3d a265 303e 187f 193b d868 e73d
000000e0: 45d2 173d bf90 373e f2b3 9abb 3fd4 6f3d
000000f0: 0d05 d23c 2d16 b33c 3f69 79bd 29d7 4bbe

net.1.net.0.weight f4 [64, 32, 4, 4]
-0.019294314 0.0559748 -0.00781927 -0.141681 0.010647695 0.08016041 0.022628227 -2.0534406e-05
0.0734691 0.023146575 0.032777198 0.044434104 0.019473663 0.03265231 -0.0063170632 0.005048094
0.015588742 -0.019809686 0.06052724 0.040289193 -0.023122426 -0.0326863 -0.040129237 0.10971603
0.015420629 0.03779828 -0.05187181 0.028274532 -0.021466576 -0.038351137 -0.01997337 0.022388473
0.0025117777 0.0890418 -0.09820294 0.017177528 0.019051073 0.13444205 0.056147225 0.038082987
-0.048002433 0.11289256 0.061131544 -0.105185 -0.0009593459 0.018586097 -0.054009177 -0.04952538
0.022600327 0.053994928 0.0044179135 -0.026185079 0.010164382 0.052635517 0.07812845 -0.03528528
0.03100388 0.138861 0.12728511 0.06836376 -0.0053382097 -0.08003408 0.039041054 -0.05809505
-0.02159345 0.022523183 0.04046205 0.05335582 0.03815412 0.14066935 0.115780115 0.049526643
0.007145213 0.13281149 0.09396865 -0.043116365 -0.049795017 0.028899655 0.02467593 0.034061976
-0.023926048 -0.036600634 0.017587502 0.0033665479 0.0055225277 -0.0011505277 -0.031937074 -0.020638179
0.00036728967 0.035891566 -0.06965762 -0.00028027024 -0.02636219 -0.028716357 0.054504503 -0.017423563
0.0073206355 0.04486035 0.027748922 -0.033063658 0.009268635 -0.061729595 -0.0052695987 -0.04908958
-0.001982677 0.054349933 0.029682375 -0.0018384383 -0.03134287 0.04152233 0.009729306 0.0569141
0.028166173 -0.0067750677 0.00992829 -0.03504045 -0.057076234 0.05897523 0.131529 0.0061454196
-0.042105146 0.03016764 0.14043094 0.035678104 0.052056022 -0.047911473 0.000867351 0.0147577645
-0.050029315 0.016781608 0.042433586 -0.02090343 0.027919844 0.09310355 0.110036194 0.0066463077
-0.015238851 0.16285314 0.10382997 -0.004702215 0.06381287 -0.009713922 0.03719536 -0.051194083
0.00973975 0.032925706 0.011906446 -0.01666071 0.058081053 0.17831902 0.09767622 0.032181367
-0.05309537 0.0048609045 0.10010988 0.030626269 -0.011610423 -0.1090586 0.111301 -0.1705964
-0.059802145 -0.018931115 0.059045732 0.0011833163 -0.00601072 0.032079797 -0.018375767 0.00286045
0.037145868 0.06828863 0.10699983 0.015127167 0.011203803 0.010991034 0.025048295 0.0331207
-0.033948984 -0.009158816 0.045231603 -0.013626641 -0.0015508074 0.0010608819 0.10199227 -0.018124612
-0.06570901 -0.016706152 0.19228645 0.006322486 0.0060197883 -0.013824257 0.009569104 -0.032563996
0.084943585 0.023096398 -0.12888443 -0.05416113 0.005121081 -0.007307454 0.012642945 -0.010239209
0.039187923 0.0378725 -0.056277614 -0.0686888 -0.023053495 0.037987374 0.013523467 -0.03542045
0.01367199 0.030304272 0.11212895 0.074489534 0.03171483 0.05234165 0.14718553 0.045545906
0.026578663 0.0372099 0.14297646 -0.009292227 0.00108353 0.022053445 0.001753357 -0.039627243
-0.0019225096 -0.023068964 -0.009013762 0.035777763 0.022899404 0.0052522128 0.0005182651 0.019848416
-0.018381624 0.018581335 0.091801494 -0.072791785 -0.0070264977 -0.04865172 -0.020912832 0.036301672
0.026162338 0.006945309 0.017688053 -0.017001754 0.004620404 0.023066426 0.047108825 -0.04511181
0.015151625 -0.0045007 -0.0062353928 -0.03439882 -0.03722853 -0.033763394 0.095311105 0.007998453
00000000: 1c0f 9ebc d545 653d 651c 00bc d314 11be
00000010: ab73 2e3c 242b a43d d55e b93c 4d41 acb7
00000020: f876 963d e39d bd3c 6241 063d 8900 363d
00000030: 3b87 9f3c 6ebe 053d 5eff cebb 7b6a a53b
00000040: ec67 7f3c ec47 a2bc 69eb 773d 4806 253d
00000050: 3e6b bdbc 12e2 05bd 8e5e 24bd ccb2 e03d
00000060: cea6 7c3c 5fd2 1a3d 8977 54bd fe9f e73c
00000070: acda afbc 1516 1dbd 319f a3bc 0868 b73c
00000080: a39c 243b 8c5b b63d 9f1e c9bd e3b7 8c3c
00000090: ff10 9c3c 2dab 093e a2fa 653d e8fc 1b3d
000000a0: 339e 44bd 3734 e73d 1265 7a3d 3c6b d7bd
000000b0: 9d7c 7bba df41 983c ba38 5dbd 20db 4abd
000000c0: 5224 b93c c929 5d3d 25c4 903b 1782 d6bc
000000d0: 8288 263c 5798 573d cf01 a03d 4c87 10bd
000000e0: d9fb fd3c 9431 0e3e 0757 023e 4d02 8c3d
000000f0: 26ec aebb e8e8 a3bd 83e9 1f3d 13f5 6dbd
00000100: bfe4 b0bc 8a82 b83c 89bb 253d a28b 5a3d
00000110: 7f47 1c3d a00b 103e 201e ed3d 73dc 4a3d
00000120: 6422 ea3b bcff 073e a372 c03d c99a 30bd
00000130: dcf5 4bbd f8be ec3c 2d25 ca3c 9284 0b3d
00000140: 8f00 c4bc 8cea 15bd aa13 903c 4da1 5c3b
00000150: 52f6 b43b 4ecd 96ba 73d0 02bd 6611 a9bc
00000160: c990 c039 0903 133d a7a8 8ebd 3cf1 92b9
00000170: 85f5 d7bc 913e ebbc 1d40 5f3d dcbb 8ebc
00000180: f1e1 ef3b 7dbf 373d b551 e33c c26d 07bd
00000190: 79db 173c 2cd8 7cbd 99ac acbb 2812 49bd
000001a0: cdef 01bb 099e 5e3d 7428 f33c c1f7 f0ba
000001b0: 6261 00bd 5213 2a3d ab67 1f3c c21e 693d
000001c0: bfbc e63c 6301 debb 44aa 223c 9386 0fbd
000001d0: c5c8 69bd 0390 713d 8aaf 063e 845f c93b
000001e0: 7276 2cbd 2022 f73c 21cd 0f3e 3423 123d
000001f0: b238 553d d23e 44bd f15e 633a 8dca 713c
00000200: 8aeb 4cbd 9579 893c d7ce 2d3d ac3d abbc
00000210: 28b8 e43c 13ad be3d a85a e13d 45c9 d93b
00000220: 60ac 79bc f9c2 263e cfa4 d43d 0a15 9abb
00000230: 52b0 823d 2427 1fbc 295a 183d e3b0 51bd
00000240: 7993 1f3c 1bdd 063d 4113 433c 0b7c 88bc
00000250: 66e6 6d3d 4399 363e 780a c83d 9cd0 033d
00000260: 887a 59bd 3948 9f3b 6906 cd3d f1e3 fa3c
00000270: a539 3ebc 1e5a dfbd c7f1 e33d d3b0 2ebe
00000280: 18f3 74bd 6d15 9bbc f0d9 713d 8219 9b3a
00000290: 93f5 c4bb 1b66 033d c788 96bc 6376 3b3b
000002a0: 4426 183d e9da 8b3d ba22 db3d f0d7 773c
000002b0: 2890 373c bd13 343c 1532 cd3c 92a9 073d
000002c0: 170e 0bbd dc0e 16bc c644 393d 4642 5fbc
000002d0: 7644 cbba 4a0d 8b3a 53e1 d03d 117a 94bc
000002e0: 7292 86bd 57db 88bc bde6 443e db2c cf3b
000002f0: a541 c53b 237f 62bc bbc7 1c3c d361 05bd
00000300: e7f6 ad3d a834 bd3c 48fa 03be 10d8 5dbd
00000310: bece a73b 5e73 efbb 5b24 4f3c 5bc2 27bc
00000320: 8483 203d 3220 1b3d 5b83 66bd b7ac 8cbd
00000330: afda bcbc a698 1b3d 8891 5d3c 0915 11bd
00000340: 7b00 603c aa40 f83c dda3 e53d f88d 983d
00000350: 69e7 013d 3364 563d ceb7 163e 588e 3a3d
00000360: 7fbb d93c 6869 183d 6c68 123e 6d3e 18bc
00000370: 3c05 8e3a 6da9 b43c e6d0 e53a 2d50 22bd
00000380: b8fc fbba 20fb bcbc 75ae 13bc b48b 123d
00000390: 8897 bb3c c11a ac3b 2fdc 073a 2599 a23c
000003a0: 0f95 96bc e237 983c 6c02 bc3d dc13 95bd
000003b0: 893e e6bb 0747 47bd 6351 abbc 10b1 143d
000003c0: 6652 d63c 7a95 e33b 89e6 903c 4347 8bbc
000003d0: c266 973b cdf5 bc3c 2ff5 403d 29c7 38bd
000003e0: 853e 783c 9c7a 93bb 4452 ccbb c7e5 0cbd
000003f0: f17c 18bd 7c4b 0abd 7832 c33d f20b 033c

net.1.net.0.bias f4 [32]
0.17195114 -0.023762627 0.047949366 0.011021298 -0.04896515 -0.014027168 0.06388676 -0.26452687
-0.11003241 -0.025929905 -0.13517192 -0.12930664 -0.09892442 -0.055611774 -0.0045230174 -0.36221486
0.15909353 -0.028038371 -0.06228337 -0.032232527 -0.054109577 -0.08905502 0.01105886 0.021121185
0.18470821 -0.0048328326 -0.042986315 -0.15232852 -0.08413129 -0.084258825 -0.4075274 0.04896878
00000000: f613 303e d7a9 c2bc 8e66 443d ad92 343c
00000010: ae8f 48bd 35d2 65bc 10d7 823d 1170 87be
00000020: ac58 e1bd f46a d4bc 826a 0abe f668 04be
00000030: e398 cabd 2cc9 63bd d235 94bb 3a74 b9be
00000040: 6ae9 223e bab0 e5bc d91c 7fbd 4106 04bd
00000050: 01a2 5dbd 7a62 b6bd 3930 353c 5606 ad3c
00000060: 2624 3d3e bd5c 9ebb 6b12 30bd 02fc 1bbe
00000070: 074d acbd e48f acbd 6ea7 d0be 7d93 483d

net.1.net.2.weight f4 [32, 16, 4, 4]
0.027084118 -0.056341905 -0.011636947 -0.06801052 0.037592925 -0.09085531 0.016354667 -0.032991506
-0.029389203 -0.05322652 0.030211886 -0.018961223 0.049874797 -0.11691544 -0.03939435 -0.048145305
-0.059928805 -0.03939377 -0.058322307 -0.023758657 -0.051197432 0.050462853 -0.009604838 -0.033821676
0.021201113 0.08106475 0.047251575 -0.046533577 -0.051081307 0.08474718 -0.008552334 0.046066437
-0.086037435 -0.017589584 0.007817734 0.053185344 0.012770212 -0.18808064 -0.16290785 0.008469487
-0.03322446 -0.15485987 -0.03092591 -0.04915508 0.14685594 -0.07665539 -0.29461497 0.056027655
0.013339169 0.10039218 0.08547075 0.0806693 -0.032322038 -0.045701433 -0.034650374 -0.08105252
-0.024939544 -0.13422932 -0.037053835 0.09112322 0.05499901 0.020691324 0.026793817 0.1389387
-0.045066334 -0.17111903 -0.08060121 -0.124208406 -0.09407374 -0.14157999 -0.21508886 -0.08608944
-0.17216171 -0.21829356 -0.18862702 -0.05117369 -0.045827318 -0.048968222 -0.098172195 -0.038754717
-0.00801856 -0.19066678 -0.08541593 -0.083598875 -0.061072104 0.033122748 0.008311567 -0.067932494
0.03391609 0.23017827 0.032490525 0.12724939 -0.008845271 -0.0465126 0.007929591 -0.0037362913
-0.07693187 -0.080020614 -0.07023164 -0.037458993 -0.13421413 -0.09091288 -0.046726324 -0.047161944
-0.036885906 -0.049641483 -0.0831435 -0.121074356 -0.03902286 -0.053593215 -0.08669427 -0.0054362
-0.053235576 0.008754443 -0.045090917 0.015308736 -0.0094527835 -0.0077268337 0.07551024 -0.013616877
-0.2608441 -0.005841517 0.11566527 -0.018039241 -0.07820113 -0.0058649513 0.010942631 -0.025152536
-0.022355892 -0.09454549 -0.01656107 -0.09563868 0.024128238 0.036846705 0.04146584 -0.042108487
0.021527635 0.13193507 0.037497826 -0.15265006 -0.00048429324 -0.09042939 -0.048847042 -0.08978546
-0.017835785 0.015827477 0.00483446 -0.015527537 -0.039936118 0.060030434 0.09334978 0.017259901
0.018355729 0.036470573 0.120447636 -0.005756976 0.015377193 0.030741228 0.040806368 -0.01662186
0.03950446 -0.042746052 -0.032331716 0.025735844 -0.012528771 -0.018589443 -0.031061286 0.0055584423
-0.042394858 0.011142634 0.01050668 -0.08081614 0.0029392745 0.011412392 -0.047954835 -0.08602756
-0.094795436 0.0656605 0.07824687 0.031200923 0.13014765 0.068962455 0.11119129 0.100586124
0.012265624 -0.018016705 0.045986712 0.070601635 0.057234373 0.014978603 0.0026712068 0.15253817
0.07159828 0.046112787 0.10604838 -0.013716751 -0.052549683 -0.026034541 0.025150979 0.06675938
0.063212864 -0.05460828 0.020256469 0.0740942 0.06829397 0.053999245 0.025639812 -0.0040021683
0.06194866 -0.00020356718 0.048669744 0.07803029 0.040193867 0.06769722 0.15035059 0.08328572
0.0495358 0.09982561 0.14311923 0.056131393 0.01651628 0.07033074 0.021153491 -0.050040234
-0.007199118 -0.083686344 0.0068259523 -0.0058098026 -0.004254341 -0.21092229 -0.044429775 0.030186066
-0.045575883 -0.20178963 -0.19100846 -0.11745972 -0.03512784 -0.0020431948 -0.0775027 -0.00037087858
-0.06198017 -0.08419812 -0.018795008 -0.049137346 -0.03642335 -0.039074384 -0.04888498 -0.03648437
-0.011855233 0.0361684 -0.05087599 -0.1038439 -0.04302052 -0.08151678 -0.037283294 -0.04728177
00000000: 83df dd3c c5c6 66bd e5a8 3ebc 1949 8bbd
00000010: 0afb 193d 5912 babd 39fa 853c 1a22 07bd
00000020: a0c1 f0bc 0d04 5abd eb7e f73c 9154 9bbc
00000030: 8449 4c3d 5d71 efbd f85b 21bd 0334 45bd
00000040: e877 75bd 5d5b 21bd 5fe3 6ebd 84a1 c2bc
00000050: 66b4 51bd 23b2 4e3d 9c5d 1dbc 9988 0abd
00000060: f5ad ad3c 4705 a63d de8a 413d fe99 3ebd
00000070: a23a 51bd ee8f ad3d 171f 0cbc 29b0 3c3d
00000080: 6534 b0bd 0818 90bc f415 003c e0d8 593d
00000090: 273a 513c 3698 40be 51d1 26be 9ac3 0a3c
000000a0: 5f16 08bd 9693 1ebe 5658 fdbc d656 49bd
000000b0: 6761 163e 80fd 9cbd c6d7 96be 417d 653d
000000c0: 888c 5a3c 6a9a cd3d 4a0b af3d f235 a53d
000000d0: 1d64 04bd 6d31 3bbd 8ded 0dbd ddfe a5bd
000000e0: 044e ccbc 6973 09be c3c5 17bd d09e ba3d
000000f0: a446 613d da80 a93c b57e db3c f245 0e3e
00000100: 7a97 38bd d439 2fbe 3f12 a5bd fa60 febd
00000110: bca9 c0bd 58fa 10be 4140 5cbe a94f b0bd
00000120: 294b 30be 5988 5fbe 7127 41be 819b 51bd
00000130: 6db5 3bbd e792 48bd 810e c9bd 44bd 1ebd
00000140: 4760 03bc 273e 43be 8cee aebd e335 abbd
00000150: be26 7abd b8ab 073d 3d2d 083c 3120 8bbd
00000160: 99eb 0a3d dab3 6b3e c914 053d aa4d 023e
00000170: c1eb 10bc ff83 3ebd 1eeb 013c 91dc 74bb
00000180: 758e 9dbd d9e1 a3bd 9bd5 8fbd 9a6e 19bd
00000190: 6e6f 09be 8830 babd 1a64 3fbd e22c 41bd
000001a0: ad15 17bd de54 4bbd 2447 aabd d5f5 f7bd
000001b0: 6fd6 1fbd 8f84 5bbd c48c b1bd 2722 b2bb
000001c0: 8c0d 5abd cc6e 0f3c 41b1 38bd 7ed1 7a3c
000001d0: d9df 1abc 6131 fdbb 1da5 9a3d 5219 5fbc
000001e0: 5c8d 85be 326a bfbb eae1 ec3d 08c7 93bc
000001f0: ea27 a0bd c72e c0bb b948 333c b10c cebc
00000200: b423 b7bc 11a1 c1bd 15ab 87bc 36de c3bd
00000210: 95a8 c53c 92ec 163d 16d8 293d f379 2cbd
00000220: b95a b03c fd19 073e 5297 193d 4c50 1cbe
00000230: bde8 fdb9 0b33 b9bd d613 48bd 70e1 b7bd
00000240: 5a1c 92bc a0a8 813c 646a 9e3b 3667 7ebc
00000250: 0e94 23bd 79e2 753d 2b2e bf3d a364 8d3c
00000260: c15e 963c 2b62 153d 40ad f63d 04a5 bcbb
00000270: 9ff0 7b3c 07d5 fb3c 9424 273d 912a 88bc
00000280: 6ecf 213d 7c16 2fbd 436e 04bd fad3 d23c
00000290: 7945 4dbc e348 98bc 3d74 febc 9823 b63b
000002a0: 3ba6 2dbd 988f 363c 3624 2c3c ef82 a5bd
000002b0: d8a0 403b 0bfb 3a3c 4a6c 44bd 382f b0bd
000002c0: 1c24 c2bd 0379 863d e53f a03d 1499 ff3c
000002d0: 6d45 053e 303c 8d3d 42b8 e33d 1900 ce3d
000002e0: c1f5 483c c597 93bc 905c 3c3d 9797 903d
000002f0: 976e 6a3d d168 753c 6a0f 2f3b f732 1c3e
00000300: 1ea2 923d c3e0 3c3d e52f d93d 39bc 60bc
00000310: 563e 57bd 6446 d5bc 6d09 ce3c 24b9 883d
00000320: bf75 813d efac 5fbd e5f0 a53c b3be 973d
00000330: b5dd 8b3d 502e 5d3d 950a d23c 9f24 83bb
00000340: e1bd 7d3d a674 55b9 ed59 473d 58ce 9f3d
00000350: 53a2 243d d7a4 8a3d 81f5 193e b491 aa3d
00000360: 0de6 4a3d 5f71 cc3d d98d 123e 08ea 653d
00000370: 264d 873c 9009 903d 164a ad3c fdf6 4cbd
00000380: 94e6 ebbb bf63 abbd 3dac df3b 2860 bebb
00000390: 0068 8bbb 03fc 57be fffb 35bd c548 f73c
000003a0: c7ad 3abd f1a1 4ebe b997 43be b98e f0bd
000003b0: 36e2 0fbd 1fe7 05bb bcb9 9ebd 7b72 c2b9
000003c0: ebde 7dbd 1070 acbd fdf7 99bc 3e44 49bd
000003d0: a730 15bd 760c 20bd 9e3b 48bd a270 15bd
000003e0: 743c 42bc 5125 143d 5863 50bd 1cac d4bd
000003f0: 4936 30bd 45f2 a6bd 5eb6 18bd 87aa 41bd

net.1.net.2.bias f4 [16]
-0.03811395 -0.0700348 0.015191474 -0.039406512 -0.10449247 -0.0007348421 -0.13687465 -0.11130492
-0.16495202 -0.06920699 0.037940502 -0.019530972 0.0021902411 0.0035163988 -0.175159 -0.1090275
00000000: 601d 1cbd 686e 8fbd a9e5 783c b968 21bd
00000010: 2600 d6bd 6ba2 40ba de28 0cbe d5f3 e3bd
00000020: 2fe9 28be 65bc 8dbd 8067 1b3d 6bff 9fbc
00000030: 268a 0f3b 6273 663b e25c 33be cf49 dfbd

net.1.net.4.weight f4 [16, 8, 4, 4]
0.0076937736 0.14179295 -0.024544882 0.026352478 0.19761667 0.14738156 0.09821379 0.13225733
-0.0020132975 0.12157643 0.008312649 0.015249786 0.033500012 0.07688494 0.02016081 -0.0094150305
-0.06481714 0.107568294 -0.033137042 0.0035397343 0.1665174 0.256807 0.21924311 0.09251901
-0.040156413 0.1523047 0.055457573 -0.017245078 -0.010219412 0.10390622 0.12121899 -0.007490822
-0.025061294 -0.06760101 -0.12190418 -0.015012654 0.0119586345 -0.050323308 -0.12797612 -0.06241253
-0.08057167 -0.022869842 -0.12540184 -0.11318099 -0.022034166 -0.06620202 -0.12797396 -0.06579419
-0.074673764 -0.06599275 -0.07392555 -0.022728823 -0.033520598 -0.10198235 -0.091178976 -0.009582521
-0.10769985 -0.08507803 -0.10358443 -0.059624247 -0.05918887 -0.095796466 -0.11493945 -0.049929824
0.02809904 -0.05621613 -0.12603551 -0.11345816 -0.098282136 0.014474715 -0.08683512 -0.18082564
-0.087328784 -0.10552991 -0.0675719 -0.047968034 -0.02955894 -0.018071637 -0.011717389 -0.06275339
-0.11590796 -0.05436086 -0.13479356 -0.20796157 -0.067576095 -0.15727687 -0.08140295 -0.12651005
-0.4058763 -0.17538509 -0.06986251 -0.20580472 -0.13872127 -0.22037297 -0.14936867 -0.12286749
-0.0010203639 -0.08945971 -0.11178407 -0.0887442 -0.018334394 -0.04395746 -0.088521086 -0.023525283
0.053569943 -0.052763898 -0.09258919 -0.07004737 -0.025447093 0.027099863 -0.0006939728 -0.02547119
-0.11709068 -0.066176556 -0.2663434 -0.13618588 -0.028048914 0.06376344 -0.09072883 0.034594316
-0.054055884 -0.08149565 -0.23156613 -0.1558523 0.018872708 0.011243069 -0.056395665 0.012785706
0.00077739975 0.030348327 0.07205303 0.038210537 0.08907461 0.08735918 0.17386453 0.09945248
-0.0059272815 0.0147620775 -0.021031136 -0.017120002 0.015102188 0.018223466 -0.01944555 0.046011377
0.023825243 -0.029291874 0.014072597 0.011277545 0.05538766 -0.10624892 -0.081642665 0.015847325
0.15244526 0.07681014 -0.017440144 0.12494319 0.103043385 0.17059213 0.13713899 0.120500185
0.067194305 0.064879425 0.06609184 0.070938565 0.06913879 0.061373018 0.12684198 0.11083337
0.03919248 0.061641105 0.053193603 0.05769329 0.01993542 0.0030963824 0.058436558 0.07255832
0.07736331 0.11767389 0.16208336 0.05026545 0.11867846 0.21262015 0.20929065 0.11907773
0.08098219 0.08514665 0.057578254 0.053163916 0.08809602 0.058047224 0.044574156 0.06286129
0.08960037 0.09156914 0.053834774 0.02552672 0.07065059 0.12238417 0.00900744 -0.038767435
0.031642605 0.10551687 0.023403155 0.030760866 0.03669517 0.06189688 0.048200782 -0.12801853
0.0708099 0.019016339 -0.059075665 0.0271233 0.14572303 0.11582763 0.10286615 0.04501045
0.03804616 0.07072006 -0.07162239 0.0699483 -0.001549389 -0.015491979 -0.035660625 0.09342892
0.15099756 0.049366973 0.010057284 -0.0015652699 0.1570918 0.14043501 0.058269847 0.11996989
0.07831004 0.0975258 0.09809999 0.14577611 0.09966446 0.06255435 0.09211969 0.10184158
-0.039603516 0.04857761 0.048069168 0.017353037 0.100234106 0.07288773 0.12360603 0.09077361
0.025426745 0.041121703 0.06812885 0.024775969 0.028010096 0.04637951 0.15086438 0.10642893
00000000: 0d1c fc3b 2c32 113e 5912 c9bc 27e1 d73c
00000010: 065c 4a3e 31eb 163e 5024 c93d 776e 073e
00000020: 87f1 03bb 10fd f83d c731 083c 3dda 793c
00000030: 4f37 093d da75 9d3d 4828 a53c 8041 1abc
00000040: d9be 84bd c44c dc3d b5ba 07bd e3fa 673b
00000050: 8a83 2a3e 357c 833e 4481 603e 9b7a bd3d
00000060: 0d7b 24bd c3f5 1b3e 7b27 633d 8d45 8dbc
00000070: 526f 27bc c9cc d43d a941 f83d 9275 f5bb
00000080: 584d cdbc 6672 8abd e6a8 f9bd a2f7 75bc
00000090: 26ee 433c d01f 4ebd 2c0c 03be 48a4 7fbd
000000a0: c202 a5bd 8959 bbbc 5769 00be 6fcb e7bd
000000b0: ff80 b4bc ed94 87bd 9b0b 03be 1bbf 86bd
000000c0: 8fee 98bd 3527 87bd 4766 97bd cc31 babc
000000d0: e54c 09bd 1fdc d0bd 0bbc babd 0200 1dbc
000000e0: bd91 dcbd 643d aebd 1324 d4bd 8e38 74bd
000000f0: 0770 72bd f030 c4bd 6065 ebbd 3783 4cbd
00000100: f52f e63c e242 66bd 740f 01be c05c e8bd
00000110: 2548 c9bd 5b27 6d3c 9dd6 b1bd 5b2a 39be
00000120: 6fd9 b2bd 1120 d8bd 2363 8abd 217a 44bd
00000130: 9725 f2bc f80a 94bc 4bfa 3fbc d984 80bd
00000140: 2761 edbd 7ea9 5ebd 5307 0abe e1f3 54be
00000150: 5665 8abd 300d 21be 97b6 a6bd da8b 01be
00000160: 05cf cfbe 2698 33be 1314 8fbd 79be 52be
00000170: f30c 0ebe 74a9 61be 1af4 18be f3a1 fbbd
00000180: bbbd 85ba a736 b7bd 0cef e4bd 85bf b5bd
00000190: 0332 96bc bd0c 34bd 8b4a b5bd 18b8 c0bc
000001a0: 286c 5b3d f51e 58bd 679f bdbd ff74 8fbd
000001b0: 6c76 d0bc 8800 de3c baeb 35ba f5a8 d0bc
000001c0: 3dcd efbd 9387 87bd 2a5e 88be 5074 0bbe
000001d0: d6c6 e5bc 6896 823d 09d0 b9bd c5b2 0d3d
000001e0: b469 5dbd 31e7 a6bd ac1f 6dbe bf97 1fbe
000001f0: f09a 9a3c d934 383c 24ff 66bd 237b 513c
00000200: 6aca 4b3a 0e9d f83c 8a90 933d a782 1c3d
00000210: c06c b63d 5fe9 b23d 8b09 323e bead cb3d
00000220: a439 c2bb a4dc 713c 7d49 acbc 3f3f 8cbc
00000230: 2b6f 773c 6149 953c 464c 9fbc 6d76 3c3d
00000240: 282d c33c 83f5 efbc c090 663c 74c5 383c
00000250: 2cde 623d 0999 d9bd 4534 a7bd 40d2 813c
00000260: 9c1a 1c3e a24e 9d3d a2de 8ebc 37e2 ff3d
00000270: 6908 d33d b4af 2e3e 2a6e 0c3e cdc8 f63d
00000280: 2b9d 893d 81df 843d 295b 873d 3d48 913d
00000290: a398 8d3d 4662 7b3d dde2 013e 9bfc e23d
000002a0: 4b88 203d 627b 7c3d 89e1 593d cd4f 6c3d
000002b0: 9b4f a33c adec 4a3b 2c5b 6f3d 7599 943d
000002c0: a870 9e3d 02ff f03d 2ef9 253e 25e3 4d3d
000002d0: b10d f33d 19b9 593e 4a50 563e 06df f33d
000002e0: fed9 a53d 5e61 ae3d 2dd7 6b3d 68c2 593d
000002f0: b06b b43d edc2 6d3d 6493 363d 6cbd 803d
00000300: 6680 b73d 9a88 bb3d da81 5c3d 691d d13c
00000310: 42b1 903d 8da4 fa3d f193 133c 9aca 1ebd
00000320: ad9b 013d 3b19 d83d f9b7 bf3c 36fe fb3c
00000330: ad4d 163d 9587 7d3d 2f6e 453d 4a17 03be
00000340: c804 913d 27c8 9b3c 53f9 71bd af31 de3c
00000350: 6b38 153e 0937 ed3d 7dab d23d e15c 383d
00000360: 4ad6 1b3d aed5 903d c2ae 92bd 0e41 8f3d
00000370: de14 cbba 12d2 7dbc e010 12bd a957 bf3d
00000380: 1b9f 1a3e 0635 4a3d 4ec7 243c be29 cdba
00000390: acdc 203e 32ce 0f3e 5dac 6e3d c6b2 f53d
000003a0: 0461 a03d 9bbb c73d a6e8 c83d 5546 153e
000003b0: e11c cc3d 7f1c 803d 3fa9 bc3d 5192 d03d
000003c0: 4c37 22bd 51f9 463d 2de4 443d f527 8e3c
000003d0: 8a47 cd3d 2a46 953d 2925 fd3d 84e7 b93d
000003e0: c04b d03c 3b6f 283d 2387 8b3d f9f6 ca3c
000003f0: 6e75 e53c 71f8 3d3d 317c 1a3e 69f7 d93d

net.1.net.4.bias f4 [8]
0.028219052 0.057101954 0.028060934 0.01618606 -0.09094696 -0.10692564 -0.07530201 -0.1472214
00000000: a42b e73c bde3 693d 0be0 e53c a198 843c
00000010: 6642 babd d4fb dabd f137 9abd 35c1 16be
